utilities/model/intent_model_state.pth (torch, 254219 bytes, 11 tensors)

embedding.weight f4 [62, 50]
0.830705 0.39516553 0.14153267 0.3268147 0.2905195 1.3045694 0.9362783 -0.7820898
-0.26563308 -1.3529358 -1.5283828 -1.1188565 0.78388005 0.255942 1.0974879 2.3400483
1.12059 1.3156372 0.87845075 0.22908734 0.47183853 0.29584962 0.1519948 0.8337828
-1.4112836 0.27033177 -1.1760185 0.31378797 -0.063702285 -0.20830008 -0.6659391 0.25864902
0.5506818 -0.4225477 -0.42958027 1.7568042 -0.83161515 0.88164824 -1.1078933 0.19334406
-1.0056729 -1.8143103 1.3702648 0.25255403 -1.0082046 -2.9005423 1.7893263 -0.81027514
-0.20698181 -0.04966556 1.346673 1.0882926 1.2077166 0.47742045 -0.06697228 0.5850462
-0.5206559 -1.9399722 -1.0711185 0.87697506 0.53888935 0.93317753 0.8513247 -1.3796738
1.0578926 0.3236666 1.2028347 -0.84912634 0.31056452 -1.1516445 0.69036496 -0.7108414
0.041712373 1.4395701 -0.25241536 0.15367067 -0.71089005 -1.317053 0.6973078 -0.0016231609
0.60905445 0.1947899 0.84104925 1.4091786 1.972032 -0.91106814 0.7932753 -1.4489918
-0.080191344 -2.4145756 0.8383415 -1.2451024 -2.5109534 0.8062992 0.16992477 -1.3068397
1.2550772 0.7513286 -0.6662472 0.018702311 1.008226 -1.2355751 -0.36362016 0.3104931
-0.97856677 -0.6683134 -2.0423987 -0.40328556 -0.5386585 -0.7486824 0.9478225 0.37307552
0.1274326 -1.7247307 -1.0976527 -0.8359844 0.16989183 -0.7104691 0.5205244 -0.35678524
0.1366306 0.085120425 -0.70691127 0.13291469 -0.6922171 -1.5878949 -1.1385088 -0.4296003
-0.741356 -0.35348797 0.7864248 -1.5963681 2.973488 -0.36566067 0.05600222 -0.5824346
1.1489569 0.009967936 2.4491663 1.7141273 -1.3157638 0.074844204 -0.74521244 1.9074552
-2.106422 -0.222064 -0.11430355 0.038704477 -0.58028054 0.23775063 0.68918115 0.9503654
1.7380964 0.7254952 0.023807261 0.44765773 -1.1726028 0.08264433 0.49127468 1.8352369
0.8127941 -0.52416676 0.60421854 1.1333663 -0.91060996 -0.7322614 0.029157942 0.54351467
-0.25462702 1.143717 -2.3862677 -2.1135936 0.6577817 0.23404785 0.16629137 -0.49576408
0.8429156 0.1333999 -0.28645355 -0.1065409 -0.51262224 -0.6922859 0.45933062 0.7187036
-0.5390422 0.041051067 1.0804781 0.12936667 -0.85824656 0.55544394 0.27587467 0.08095176
-1.8567983 -1.2544292 -1.6275576 0.0234398 -0.7689716 1.246436 -0.18223304 -0.5677343
-1.2369955 0.8348085 1.5536816 -0.06382828 0.48198512 -0.09555075 -0.32683036 0.78631383
1.3357918 0.30392337 0.805745 -0.36323246 1.8591199 2.3157475 -1.2492694 -0.35307935
-2.1894736 -1.5870578 -0.6547139 0.08781803 0.5627996 -0.09797527 -0.06629314 -2.423252
-1.0154554 -0.40309 0.90405524 -0.6197634 -0.84894973 0.02991282 0.16190754 -0.14218703
-0.5029852 -0.49863553 2.372934 1.0822322 0.6918179 0.9470334 -1.0436815 -2.7481556
-1.2404696 1.4662623 -1.228938 0.49240148 0.4000618 1.4425694 2.4660995 0.23852232
0.7481667 -1.3324457 1.8059849 -0.6929264 0.24038929 1.2643038 1.3209525 -0.24549916
00000000: 15a9 543f 2353 ca3e f1ed 103e 4254 a73e
00000010: f9be 943e 21fc a63f efaf 6f3f 0a37 48bf
00000020: 0f01 88be 002d adbf 0ca2 c3bf b136 8fbf
00000030: 5dac 483f d40a 833e 7c7a 8c3f 5ac3 1540
00000040: 7e6f 8f3f cd66 a83f 26e2 603f df95 6a3e
00000050: d294 f13e 9a79 973e 86a4 1b3e ca72 553f
00000060: f1a4 b4bf ed68 8a3e c687 96bf d1a8 a03e
00000070: 5876 82bd 9e4c 55be fc7a 2abf a56d 843e
00000080: 7cf9 0c3f 2c58 d8be f2f1 dbbe f6de e03f
00000090: bbe4 54bf b3b3 613f 73cf 8dbf fcfb 453e
000000a0: e4b9 80bf 523b e8bf d664 af3f c34e 813e
000000b0: d90c 81bf 7ca2 39c0 a508 e53f 316e 4fbf
000000c0: 0af3 53be 1d6e 4bbd c85f ac3f 2c4d 8b3f
000000d0: 7596 9a3f 7470 f43e c328 89bd 96c5 153f
000000e0: b449 05bf 0251 f8bf 691a 89bf 7081 603f
000000f0: a7f4 093f b9e4 6e3f 6af0 593f 2799 b0bf
00000100: 0669 873f a1b7 a53e 7df6 993f 5860 59bf
00000110: 5002 9f3e 1669 93bf c2bb 303f b4f9 35bf
00000120: 98da 2a3d d543 b83f 963c 81be d85b 1d3e
00000130: e4fc 35bf 3195 a8bf c482 323f 3ec0 d4ba
00000140: feea 1b3f 0177 473e 014f 573f f75f b43f
00000150: 8b6b fc3f c33b 69bf 1714 4b3f 9078 b9bf
00000160: 5c3b a4bd 6888 1ac0 8c9d 563f 845f 9fbf
00000170: 76b3 20c0 a069 4e3f c200 2e3e 8646 a7bf
00000180: 5fa6 a03f 1257 403f 2d8f 2abf 9735 993c
00000190: 8d0d 813f 5327 9ebf 6c2c babe f4f8 9e3e
000001a0: 5a83 7abf 9616 2bbf a9b6 02c0 727b cebe
000001b0: 86e5 09bf a6a9 3fbf 7fa4 723f c103 bf3e
000001c0: b17d 023e fac3 dcbf e27f 8cbf 1303 56bf
000001d0: 20f8 2d3e 4ee1 35bf 1641 053f 8eac b6be
000001e0: e4e8 0b3e 9e53 ae3d 23f8 34bf ca1a 083e
000001f0: 2435 31bf 2440 cbbf a8ba 91bf 92f4 dbbe
00000200: 82c9 3dbf 60fc b4be 2353 493f ca55 ccbf
00000210: a14d 3e40 e037 bbbe 9562 653d 6f1a 15bf
00000220: 0511 933f 8e50 233c 24bf 1c40 8668 db3f
00000230: f36a a8bf eb47 993d 3ec6 3ebf 7e27 f43f
00000240: 9ecf 06c0 bf64 63be fb17 eabd 9688 1e3d
00000250: 448d 14bf e774 733e 2d6e 303f 264b 733f
00000260: f179 de3f 0eba 393f 7207 c33c 6533 e53e
00000270: d917 96bf 6e41 a93d 5b88 fb3e 0be9 ea3f
00000280: 4613 503f cb2f 06bf 11ae 1a3f 2612 913f
00000290: bc1d 69bf 7c75 3bbf a3dc ee3c c723 0b3f
000002a0: 795e 82be 5265 923f 9cb8 18c0 1e45 07c0
000002b0: 6264 283f 3daa 6f3e 4948 2a3e cad4 fdbe
000002c0: 51c9 573f fc99 083e 0aaa 92be 1e32 dabd
000002d0: 363b 03bf a639 31bf 622d eb3e f6fc 373f
000002e0: abfe 09bf 2a25 283d 1b4d 8a3f b278 043e
000002f0: 0cb6 5bbf 9331 0e3f 723f 8d3e 09ca a53d
00000300: 91ab edbf 2391 a0bf cf53 d0bf d304 c03c
00000310: 53db 44bf 378b 9f3f 4c9b 3abe 0957 11bf
00000320: de55 9ebf 03b6 553f 0adf c63f 67b8 82bd
00000330: c1c6 f63e 1db0 c3bd 4f56 a7be dd4b 493f
00000340: 3afb aa3f d89b 9b3e 4e45 4e3f 9bf9 b9be
00000350: a4f7 ed3f 3535 1440 0fe8 9fbf d1c6 b4be
00000360: 5620 0cc0 b624 cbbf 559b 27bf f0d9 b33d
00000370: a213 103f 42a7 c8bd b3c4 87bd 9016 1bc0
00000380: 71fa 81bf d061 cebe 2a70 673f d0a8 1ebf
00000390: c554 59bf bb0b f53c 17cb 253e 7a99 11be
000003a0: a3c3 00bf 284d ffbe 27de 1740 9686 8a3f
000003b0: fa1a 313f c870 723f 5b97 85bf c8e1 2fc0
000003c0: b5c7 9ebf 7cae bb3f d74d 9dbf 0c1c fc3e
000003d0: e6d4 cc3e 1da6 b83f 93d4 1d40 323f 743e
000003e0: da87 3f3f 958d aabf 832a e73f a063 31bf
000003f0: 9c28 763e b5d4 a13f f914 a93f 2264 7bbe

lstm.weight_ih_l0 f4 [256, 50]
0.106523454 -0.09542806 0.12077205 -0.090934806 0.11997895 -0.002209521 0.021428544 -0.113547236
-0.111037314 0.013892093 -0.006882268 -0.119917355 0.019081837 -0.051814046 -0.08270168 0.048921347
0.033201654 -0.059329078 -0.0232637 -0.033038158 -0.052066687 -0.006629924 -0.10537839 -0.031645034
-0.011788659 0.0760778 -0.07777633 0.09325756 -0.004645207 0.101617955 -0.058405966 -0.00069955114
-0.047646984 -0.045109715 0.040805936 0.03679251 0.10280447 0.024221918 -0.021982545 0.0521889
0.019463941 -0.11696501 0.03899926 0.04864332 -0.031974904 -0.009328024 0.08974515 0.070166096
0.08346027 -0.08524831 -0.093570285 0.10860721 0.0052099954 -0.104502745 -0.07157111 -0.035541106
0.05957807 -0.025875026 0.096118115 0.022822192 -0.028038792 -0.12420128 -0.09073559 0.12929729
0.045805875 0.09524467 -0.04613255 0.07977216 0.0060398453 -0.09943409 -0.065097496 0.006767208
0.07154804 0.057623755 -0.082617454 -0.07476086 -0.071423136 0.0073766285 -0.1182491 -0.02485246
-0.10990875 -0.008476897 0.058579795 0.06424206 0.013750709 -0.04979945 0.072833136 -0.035044804
-0.040683728 0.009643655 -0.016442778 0.03771244 0.122073226 0.03522985 0.0047790105 -0.13161632
0.108461276 -0.067935035 -0.07707374 0.057696518 -0.0615694 0.05942131 0.11421224 -0.119913146
-0.0028210748 0.090586364 -0.05221045 -0.043240983 -0.1063096 -0.053580232 0.09151185 -0.017112412
0.07102824 0.097832076 0.01709743 -0.089001104 -0.12743293 0.11562307 -0.10342344 -0.06367351
-0.07154344 0.08413649 -0.12557177 -0.0053751194 0.093271315 0.03797034 0.036144465 -0.030040579
-0.07497821 -0.043423917 -0.016779738 0.11387239 0.018814977 0.11844991 -0.08989564 -0.011082248
-0.030308926 0.0587947 -0.029091865 -0.11011852 0.055651877 -0.06579355 0.018751256 -0.083822444
0.09582604 -0.10171511 -0.022437073 0.010208622 0.09245751 -0.007728966 0.020361794 -0.05366663
0.03648988 0.009099216 -0.018119434 0.033739336 -0.0035961964 0.10445393 0.08131391 0.056325346
-0.11668085 0.060433898 0.14037947 -0.060461298 0.026069863 -0.082474485 0.09336269 -0.0626709
0.07851691 -0.07830964 0.060022272 0.098722465 0.112495676 -0.05317656 0.1049328 0.050231032
-0.10610344 0.011717321 -0.12793191 -0.075182915 -0.06904716 0.07858555 -0.080556534 0.022933073
0.04512106 -0.037230987 -0.031137269 -0.0038884976 0.08329796 0.006846215 0.02004084 0.045423795
-0.005851303 -0.0005778854 -0.09816419 -0.039871424 0.082513124 -0.13749121 0.055033192 0.09181615
-0.1030254 0.0931306 -0.10854205 0.08161487 0.0927012 0.12988262 0.077426165 -0.057147536
0.053337548 0.057389356 -0.03253251 0.008527424 -0.073989324 0.066689275 0.11542379 -0.0084516825
0.13419724 0.0352377 -0.013267819 -0.09702501 0.012453313 0.13287556 0.1189345 -0.016470319
-0.015342327 0.025922641 -0.08412051 0.038123317 0.087938964 0.039705887 -0.09452313 0.13829488
0.12706053 -0.027702015 -0.020516964 -0.024117276 -0.0030140502 -0.08505586 -0.013987851 0.00987928
0.075510725 0.07394053 -0.031035593 0.052632738 0.087950654 -0.09870632 0.007406165 0.073896945
-0.07733645 0.024599357 0.025695197 0.09099462 0.0041150474 0.0826565 0.09786242 -0.050751787
00000000: f828 da3d c96f c3bd 5657 f73d 073c babd
00000010: 86b7 f53d 9ccd 10bb ea8a af3c 748b e8bd
00000020: 8867 e3bd a99b 633c a684 e1bb 3b97 f5bd
00000030: 8351 9c3c f73a 54bd 805f a9bd c061 483d
00000040: 75fe 073d 0c03 73bd 8493 bebc 0553 07bd
00000050: e143 55bd d53f d9bb a0d0 d7bd 399e 01bd
00000060: 3825 41bc adce 9b3d 3249 9fbd d2fd be3d
00000070: d236 98bb 131d d03d 183b 6fbd 1562 37ba
00000080: 7c29 43bd f7c4 38bd 2024 273d beb3 163d
00000090: 268b d23d 0b6d c63c bd14 b4bc 07c4 553d
000000a0: d872 9f3c 5a8b efbd b0bd 1f3d 383e 473d
000000b0: 1ef8 02bd 92d4 18bc 4ecc b73d 3eb3 8f3d
000000c0: 38ed aa3d aa96 aebd c7a1 bfbd 756d de3d
000000d0: 9cb8 aa3b 8905 d6bd e093 92bd 8d93 11bd
000000e0: 2208 743d ddf7 d3bc 93d9 c43d 9bf5 ba3c
000000f0: 9cb1 e5bc 3e5d febd 95d3 b9bd 8266 043e
00000100: f19e 3b3d a30f c33d 7cf5 3cbd 965f a33d
00000110: e5e9 c53b 1aa4 cbbd d651 85bd 75bf dd3b
00000120: c787 923d e306 6c3d 5733 a9bd 391c 99bd
00000130: 4b46 92bd a5b7 f13b 962c f2bd 6397 cbbc
00000140: d717 e1bd afe2 0abc 5ef1 6f3d 5791 833d
00000150: a74a 613c 82fa 4bbd 8a29 953d 248b 0fbd
00000160: fba3 26bd 6c00 1e3c 01b3 86bc 5c78 1a3d
00000170: 8701 fa3d 2d4d 103d 3f99 9c3b 6ec6 06be
00000180: f220 de3d 8621 8bbd d6d8 9dbd 2f53 6c3d
00000190: 3230 7cbd c263 733d 1be8 e93d 0695 f5bd
000001a0: c8e1 38bb 5885 b93d a0da 55bd 751d 31bd
000001b0: d9b8 d9bd f276 5bbd 916a bb3d 542f 8cbc
000001c0: 4177 913d 2f5c c83d e90f 8c3c 3646 b6bd
000001d0: c77d 02be cacb ec3d abcf d3bd 4267 82bd
000001e0: 5e85 92bd c14f ac3d e395 00be c521 b0bb
000001f0: 0805 bf3d ca86 1b3d 380c 143d a917 f6bc
00000200: 2d8e 99bd 47dd 31bd a975 89bc ed35 e93d
00000210: de21 9a3c de95 f23d 351b b8bd 5192 35bc
00000220: 6d4a f8bc b6d2 703d 1052 eebc d285 e1bd
00000230: 39f3 633d c5be 86bd 3c9c 993c 1aab abbd
00000240: 7140 c43d 0350 d0bd f4cd b7bc 1042 273c
00000250: 5d5a bd3d 4443 fdbb c7cd a63c 8ad1 5bbd
00000260: 6a76 153d e114 153c 356f 94bc 4232 0a3d
00000270: 2aae 6bbb f1eb d53d e887 a63d 68b5 663d
00000280: 5ff6 eebd 8989 773d a3bf 0f3e 44a6 77bd
00000290: 7790 d53c 62e8 a8bd f034 bf3d 9a59 80bd
000002a0: 79cd a03d ce60 a0bd ead9 753d 012f ca3d
000002b0: 2264 e63d aacf 59bd 02e7 d63d 0ebf 4d3d
000002c0: c34c d9bd 02fa 3f3c 9500 03be 80f9 99bd
000002d0: 9968 8dbd 76f1 a03d d3fa a4bd 24de bb3c
000002e0: dcd0 383d 857f 18bd 9613 ffbc 2ad6 7ebb
000002f0: 1f98 aa3d 3756 e03b b02c a43c 4d0e 3a3d
00000300: 4abc bfbb 3c7d 17ba 4f0a c9bd 3850 23bd
00000310: a4fc a83d 7fca 0cbe 7c6a 613d 1b0a bc3d
00000320: fbfe d2bd 42bb be3d 4b4b debd b225 a73d
00000330: 20da bd3d f3ff 043e 9c91 9e3d 8913 6abd
00000340: 7978 5a3d 1a11 6b3d cf40 05bd 9cb6 0b3c
00000350: b787 97bd 6394 883d 4f63 ec3d ed78 0abc
00000360: 006b 093e 6855 103d 4461 59bc 0cb5 c6bd
00000370: fb08 4c3c 8810 083e ee93 f33d c3ec 86bc
00000380: 625e 7bbc b85b d43c 6047 acbd 3227 1c3d
00000390: 5819 b43d a4a2 223d 5895 c1bd 2c9d 0d3e
000003a0: 281c 023e 56ef e2bc 3113 a8bc 9891 c5bc
000003b0: 5f87 45bb c431 aebd 4d2d 65bc b4dc 213c
000003c0: 5ea5 9a3d 226e 973d 5b3e febc 6d95 573d
000003d0: 791f b43d 8a26 cabd 6aaf f23b 4857 973d
000003e0: 9362 9ebd 9784 c93c bc7e d23c 635b ba3d
000003f0: 85d7 863b d047 a93d 186c c83d 1be1 4fbd

lstm.weight_hh_l0 f4 [256, 64]
-0.011969052 -0.1030117 0.074880935 0.11506976 0.110466026 0.0094808685 0.0012605698 0.02504165
0.096900165 0.13484992 0.12769209 0.080787666 0.124069385 0.124046944 -0.10897648 -0.025146067
0.053556368 -0.006838552 -0.04042378 -0.08293268 -0.082287185 -0.045739107 0.10234543 0.107802644
0.061660707 -0.017012218 0.0018663115 0.09234006 0.049651206 -0.069714054 -0.0030380054 0.033078007
0.04402411 -0.07469919 -0.04728224 -0.008621234 -0.025805682 -0.13911624 -0.104907125 -0.044322837
0.06565202 -0.048800018 0.08419625 -0.07396921 0.021437958 0.06252347 0.06282954 0.114604674
0.024332995 0.03869014 0.005003154 -0.08809059 -0.13741551 0.05361826 -0.10541875 -0.09790792
-0.124733016 -0.018442718 0.00010196911 0.046504777 0.08627489 0.099513054 0.082353935 -0.07073792
0.07109471 0.110998 -0.029803153 0.047738433 0.027980428 -0.041084703 -0.0053158347 -0.040131643
0.107703894 0.0033483452 -0.00030812368 -0.12216881 0.14238757 0.120655656 0.016523913 -0.036149804
0.049086586 -0.054519575 -0.04021244 0.035428394 0.053567402 0.1114612 0.07073669 0.10450327
0.08967646 0.11717806 0.12997755 -0.08537189 0.038102023 -0.12696283 0.060409307 -0.12621842
0.11610423 0.066311456 -0.0294524 0.10967618 -0.0910404 0.12964503 0.04003325 -0.017638616
-0.029241271 -0.12956597 -0.08391438 -0.011279513 0.09881698 -0.036246452 -0.019775443 -0.018508088
-0.0975237 -0.09206467 -0.061895248 -0.04218977 -0.030006085 -0.043460682 0.10638494 -0.012283526
0.08110067 -0.055777963 0.015391535 -0.09653842 -0.08476507 -0.0064633633 0.047722947 -0.077962466
-0.07687469 0.05145808 -0.08259767 -0.035675686 -0.021634363 0.08007285 0.086618274 0.034560215
-0.04197202 0.11606843 -0.06300613 -0.06843426 -0.08474112 0.10703835 0.023920573 -0.08694853
-0.10132567 -0.06299338 0.12256786 -0.03905216 0.05041084 0.06871927 -0.065626234 0.0035884448
0.118396744 0.07573451 0.07417201 -0.02198852 0.12015748 -0.09618604 0.07156267 -0.0074586063
0.01695331 0.10082366 -0.09277862 -0.09734003 -0.080317296 -0.04390367 0.041386414 -0.033079028
-0.04650564 0.026098767 -0.04717497 -0.0033550907 -0.02180611 -0.1005902 0.008879479 -0.005656302
0.05786556 -0.082830325 -0.0062136184 -0.07925258 -0.027284678 0.0013459437 -0.065683536 -0.097145095
0.02808234 -0.052291036 0.09431726 0.044211302 -0.040958643 0.040997077 0.053273257 0.10378082
0.06338489 0.12854923 -0.05627873 0.01725589 0.14197476 -0.12517537 0.009139726 -0.12462097
0.005580958 0.08152994 0.0016631673 -0.047972985 0.11108666 0.027930092 -0.059248324 -0.031752557
0.0455856 -0.020060064 0.060967308 0.07847249 -0.0038316709 -0.03898092 -0.034136772 0.097406566
0.10429904 -0.03231507 -0.028598366 0.0056568 0.08521016 -0.015022575 -0.07071096 -0.0059649944
-0.064750455 -0.07495251 0.023420466 0.0225904 -0.0058073844 0.05462776 0.044536266 0.017624205
-0.13617328 0.09332408 0.1222928 -0.07862349 0.08683163 -0.006055733 0.0066003413 0.011333583
-0.08962706 -0.08736172 -0.06876201 0.116237804 0.10694733 -0.031342994 0.041312847 -0.008038034
-0.015248743 -0.12905209 0.088295475 0.056741655 0.0038788728 -0.01587339 -0.07379141 -0.09681631
00000000: d819 44bc ccf7 d2bd 2d5b 993d b2a9 eb3d
00000010: 033c e23d a555 1b3c b439 a53a 2524 cd3c
00000020: 9873 c63d 1916 0a3e b7c1 023e 0174 a53d
00000030: 1718 fe3d 530c fe3d 102f dfbd 20ff cdbc
00000040: ec5d 5b3d ef15 e0bb 6893 25bd 9cd8 a9bd
00000050: 2f86 a8bd ee58 3bbd 7b9a d13d a2c7 dc3d
00000060: f08f 7c3d 355d 8bbc 069f f43a c91c bd3d
00000070: 105f 4b3d 3ec6 8ebd 4619 47bb ce7c 073d
00000080: a052 343d e4fb 98bd 06ab 41bd 1440 0dbc
00000090: 7066 d3bc 7d74 0ebe 8cd9 d6bd dd8b 35bd
000000a0: 9174 863d 87e2 47bd 156f ac3d 2b7d 97bd
000000b0: a89e af3c 4e0c 803d c6ac 803d dbb5 ea3d
000000c0: fd55 c73c 8d79 1e3d 7ff1 a33b d768 b4bd
000000d0: a7b6 0cbe d29e 5b3d c9e5 d7bd f383 c8bd
000000e0: 0674 ffbd 2f15 97bc 40d8 d538 cb7b 3e3d
000000f0: e4b0 b03d 80cd cb3d 2ea9 a83d 0bdf 90bd
00000100: 1a9a 913d eb52 e33d be25 f4bc 6089 433d
00000110: 3637 e53c 6f48 28bd 7430 aebb 1461 24bd
00000120: dc93 dc3d e96f 5b3b a98b a1b9 a433 fabd
00000130: 0cce 113e 501a f73d 285d 873c d111 14bd
00000140: 040f 493d eb4f 5fbd cdb5 24bd 5d1d 113d
00000150: 7e69 5b3d c545 e43d 66de 903d cf05 d63d
00000160: 4ba8 b73d 0dfb ef3d d618 053e 75d7 aebd
00000170: de10 1c3d 8b02 02be c06f 773d 673f 01be
00000180: 0ec8 ed3d 4dce 873d 2946 f1bc e89d e03d
00000190: 6473 babd abc1 043e e8f9 233d dc7e 90bc
000001a0: 648b efbc f1ac 04be 4ddb abbd b5cd 38bc
000001b0: 8f60 ca3d 2977 14bd 1c00 a2bc 469e 97bc
000001c0: 81ba c7bd 678c bcbd df85 7dbd 2ecf 2cbd
000001d0: 52cf f5bc d403 32bd 59e0 d93d d840 49bc
000001e0: 1c18 a63d 6f77 64bd c72c 7c3c efb5 c5bd
000001f0: 4f99 adbd 9fca d3bb 2379 433d c9aa 9fbd
00000200: 7a70 9dbd b5c5 523d f828 a9bd ab20 12bd
00000210: 8c3a b1bc 3cfd a33d ec64 b13d 038f 0d3d
00000220: daea 2bbd 49b5 ed3d 5c09 81bd 4327 8cbd
00000230: c18c adbd ec36 db3d 14f5 c33c 1212 b2bd
00000240: d583 cfbd ac02 81bd dc04 fb3d 28f5 1fbd
00000250: 997b 4e3d b0bc 8c3d 0c67 86bd 1d2c 6b3b
00000260: fe79 f23d b21a 9b3d 7fe7 973d 4521 b4bc
00000270: 2015 f63d 30fd c4bd 738f 923d 5367 f4bb
00000280: abe1 8a3c a37c ce3d b802 bebd 365a c7bd
00000290: 657d a4bd 56d4 33bd cd84 293d e07d 07bd
000002a0: b37c 3ebd 15cd d53c 8b3a 41bd 15e1 5bbb
000002b0: baa2 b2bc 3c02 cebd 3c7b 113c 8058 b9bb
000002c0: 7004 6d3d f2a2 a9bd 9c9b cbbb 2d4f a2bd
000002d0: 1e84 dfbc 606a b03a 1785 86bd 02f4 c6bd
000002e0: ef0c e63c 202f 56bd 6829 c13d e916 353d
000002f0: 40c4 27bd 8dec 273d 0f35 5a3d 0a8b d43d
00000300: f0cf 813d 69a2 033e 8784 66bd 395c 8d3c
00000310: d561 113e f92d 00be cabe 153c 4739 ffbd
00000320: 78e0 b63b 2bf9 a63d a2fe d93a 527f 44bd
00000330: 6781 e33d a6cd e43c 5fae 72bd f80e 02bd
00000340: f7b7 3a3d 0155 a4bc dbb8 793d 2fb6 a03d
00000350: c51c 7bbb 75aa 1fbd 00d3 0bbd 187d c73d
00000360: bc9a d53d cf5c 04bd 1f47 eabc ae5c b93b
00000370: aa82 ae3d 3f21 76bc e8d0 90bd 0076 c3bb
00000380: e39b 84bd b480 99bd 47dc bf3c 810f b93c
00000390: df4b bebb 5cc1 5f3d a96b 363d a360 903c
000003a0: 0271 0bbe b220 bf3d a674 fa3d 5a05 a1bd
000003b0: c8d4 b13d 2c6f c6bb ad47 d83b 7eb0 393c
000003c0: 648e b7bd b4ea b2bd 19d3 8cbd 160e ee3d
000003d0: 3407 db3d 8361 00bd a937 293d f5b1 03bc
000003e0: ddd5 79bc 3b26 04be 42d4 b43d f069 683d
000003f0: b034 7e3b e908 82bc f31f 97bd a147 c6bd

lstm.bias_ih_l0 f4 [256]
-0.07212614 -0.0030292687 0.092018925 0.007715131 -0.030729115 -0.053645633 -0.0037246058 0.07548618
-0.019547781 0.12526731 -0.029613053 -0.04758393 0.056118954 -0.098560035 0.008584581 -0.10213804
0.12521593 -0.0402363 -0.025823426 0.0050450703 -0.045675155 -0.09660992 -0.0701982 -0.023897089
0.07519865 0.06993298 -0.108516425 -0.013655543 0.07821597 -0.102884606 0.05813131 -0.11766762
0.0018039824 -0.055283867 -0.007128917 -0.10849769 -0.024829736 0.022846328 0.079559214 -0.021525977
-0.035946246 -0.07520192 0.024791935 0.11197185 -0.102194905 -0.061871074 0.039126735 -0.12109975
0.024297835 0.029130511 -0.021763032 0.056525633 -0.013770613 -0.043992605 -0.10299489 -0.030059926
-0.011017742 0.09180917 0.07497685 -0.050201695 -0.011082555 -0.082497515 -0.047200322 -0.079552844
0.004215577 -0.113452554 -0.03060995 0.05269895 0.0720021 0.0039031827 0.102776974 0.038413085
-0.06590107 -0.058779262 0.006715766 -0.06559368 -0.10940297 0.12819786 0.050713822 -0.023309521
-0.101976424 0.08574825 0.0684403 0.101655096 -0.061040618 -0.04867098 0.13042246 0.10659518
-0.021289578 -0.016345639 0.08107883 0.08989581 -0.035273172 0.033945184 -0.122220434 -0.011484738
-0.08933599 -0.0730031 -0.05086978 -0.08715701 -0.011590083 0.12160449 -0.092858784 -0.032539025
-0.09777203 0.053490967 0.11387776 -0.083468914 0.035966855 0.0339911 0.010336715 -0.06815849
0.07970538 -0.0856946 0.097432956 -0.018370489 0.093990855 -0.025915548 0.07200084 -0.056854535
-0.04580536 0.09976797 -0.09941753 -0.10017577 0.06668413 -0.10166917 0.05636159 0.067370355
-0.0004992321 -0.09126634 0.030351173 0.12174087 -0.08814729 -0.010158591 -0.084890105 0.0075670243
0.05960807 0.103478484 0.04797334 0.062013436 0.022365997 0.13152978 0.11272191 -0.060187303
-0.113082655 0.0881516 -0.03116587 0.08777834 0.11211845 0.049321357 -0.11090908 0.02593683
-0.11892854 -0.06769872 0.06857195 -0.09800358 -0.06807419 -0.068135075 -0.08691008 -0.09460232
-0.10079201 -0.043387953 -0.06117654 0.044002663 0.00086421927 -0.11513226 -0.00437427 0.080528855
0.05853995 -0.025670692 0.034910094 0.08578746 -0.0019348579 -0.077222385 -0.09365127 -0.021721896
0.097149126 0.032350264 0.07851242 -0.09114093 0.084314816 -0.077864856 0.09387332 -0.047087405
-0.04953305 0.03614916 0.050076462 0.00522588 0.051515754 0.100906566 0.02248612 0.010388954
0.01883554 -0.10151247 0.08525674 -0.03559193 0.008130352 -0.12806383 -0.07259438 -0.008422117
0.09079962 0.13517392 0.07086241 -0.08815915 0.10616885 0.043294556 -0.00065816863 -0.08931444
-0.020556781 -0.0979745 0.13729243 0.101127796 -0.06359754 0.124574065 0.09896152 0.14158866
-0.029297728 -0.04552188 -0.06100357 0.03238135 0.09802509 -0.03945077 0.05238319 -0.017775847
0.05156498 -0.07013836 0.102442786 -0.09609746 -0.025818704 -0.1014399 -0.03748519 -0.043837804
0.071398295 -0.08063072 0.07767789 0.10733681 -0.05215759 0.083788656 0.011224174 -0.05416512
0.023601232 -0.021723492 0.116124675 0.09999929 0.04652424 0.122266494 -0.04232242 0.03941108
-0.052363575 -0.04818377 -0.0044911793 0.074412405 -0.014415676 -0.028328653 0.039039858 0.067643434
00000000: dfb6 93bd b286 46bb 6b74 bc3d 36cf fc3b
00000010: a0bb fbbc 86bb 5bbd 8418 74bb 8098 9a3d
00000020: ab22 a0bc 1346 003e 1397 f2bc 5ee7 42bd
00000030: fddc 653d d8d9 c9bd 58a6 0c3c c02d d1bd
00000040: 9b38 003e d2ce 24bd a68b d3bc 1e51 a53b
00000050: df15 3bbd 6cdb c5bd 13c4 8fbd d4c3 c3bc
00000060: c001 9a3d 0639 8f3d dc3d debd 80bb 5fbc
00000070: b22f a03d 2ab5 d2bd 191b 6e3d b9fb f0bd
00000080: 9b73 ec3a 5671 62bd b199 e9bb 0934 debd
00000090: bb67 cbbc 3928 bb3c f1ef a23d 3f57 b0bc
000000a0: 5f3c 13bd 7703 9abd 7518 cb3c 7f51 e53d
000000b0: 904b d1bd 866c 7dbd 5b43 203d 2503 f8bd
000000c0: 410c c73c 1ca3 ee3c 6348 b2bc 6c87 673d
000000d0: 239e 61bc 9731 34bd fcee d2bd 3c40 f6bc
000000e0: c283 34bc 7206 bc3d 768d 993d 4ba0 4dbd
000000f0: 9b93 35bc 75f4 a8bd 2055 41bd 9aec a2bd
00000100: d322 8a3b d059 e8bd b8c1 fabc dbda 573d
00000110: d675 933d 8acc 7f3b bc7c d23d 0a57 1d3d
00000120: 24f7 86bd 86c2 70bd ee0f dc3b fb55 86bd
00000130: aa0e e0bd 4d46 033e 4cb9 4f3d 9cf3 bebc
00000140: 04d9 d0bd c79c af3d 6e2a 8c3d 8c30 d03d
00000150: ba05 7abd 395b 47bd 778d 053e 934e da3d
00000160: 7b67 aebc 4ae7 85bc a80c a63d 4b1b b83d
00000170: 9a7a 10bd 1b0a 0b3d b54e fabd 7c2a 3cbc
00000180: caf5 b6bd a682 95bd d55c 50bd 607f b2bd
00000190: 55e4 3dbc c60b f93d bf2c bebd a447 05bd
000001a0: b43c c8bd 5819 5b3d be38 e93d c0f1 aabd
000001b0: fb51 133d 403a 0b3d 535b 293c ae96 8bbd
000001c0: 933c a33d a780 afbd ee8a c73d b57d 96bc
000001d0: 477e c03d d84c d4bc 2d75 933d 4de0 68bd
000001e0: 679e 3bbd 2653 cc3d 6b9b cbbd f428 cdbd
000001f0: b091 883d ed37 d0bd 69db 663d 78f9 893d
00000200: e6de 02ba d9e9 babd 06a3 f83c 4753 f93d
00000210: 9186 b4bd 3870 26bc ddda adbd cdf4 f73b
00000220: 9727 743d 87ec d33d b17f 443d cd01 7e3d
00000230: e538 b73c beaf 063e bfda e63d f686 76bd
00000240: e197 e7bd d388 b43d 914f ffbc 21c5 b33d
00000250: 5c9e e53d 3105 4a3d 4d24 e3bd 7a79 d43c
00000260: ce90 f3bd a0a5 8abd 736f 8c3d 1ab6 c8bd
00000270: 7b6a 8bbd 678a 8bbd e9fd b1bd dcbe c1bd
00000280: 0b6c cebd 91b7 31bd 4094 7abd 233c 343d
00000290: c68c 623a 76ca ebbd 0956 8fbb 50ec a43d
000002a0: 96c7 6f3d 584b d2bc e3fd 0e3d 56b1 af3d
000002b0: 0f9b fdba c526 9ebd 3dcc bfbd 1ef2 b1bc
000002c0: 1ff6 c63d b681 043d 1fcb a03d 19a8 babd
000002d0: 3fad ac3d 9c77 9fbd a840 c03d b9de 40bd
000002e0: 2be3 4abd 2411 143d fa1c 4d3d dc3d ab3b
000002f0: 2f02 533d 1aa8 ce3d d034 b83c 6e36 2a3c
00000300: fe4c 9a3c c5e5 cfbd 169b ae3d d8c8 11bd
00000310: 2b35 053c 2a23 03be 5dac 94bd ebfc 09bc
00000320: 27f5 b93d 086b 0a3e 5020 913d c98c b4bd
00000330: 0e6f d93d a255 313d f388 2cba 7dea b6bd
00000340: b266 a8bc dba6 c8bd 6396 0c3e 171c cf3d
00000350: 6d3f 82bd b020 ff3d 56ac ca3d 9efc 103e
00000360: ca01 f0bc 2775 3abd e1de 79bd 4ea2 043d
00000370: 61c1 c83d 2197 21bd c18f 563d a79e 91bc
00000380: cd35 533d b3a4 8fbd 86cd d13d bfce c4bd
00000390: bf81 d3bc b9bf cfbd 128a 19bd 458f 33bd
000003a0: 4539 923d b821 a5bd 9615 9f3d 67d3 db3d
000003b0: 32a3 55bd 6399 ab3d 99e5 373c 3fdc 5dbd
000003c0: 5f57 c13c 77f5 b1bc c6d2 ed3d 6ecc cc3d
000003d0: 3490 3e3d db66 fa3d 465a 2dbd 836d 213d
000003e0: 307b 56bd 585c 45bd be2a 93bb 8865 983d
000003f0: ba2f 6cbc 7e11 e8bc 42e8 1f3d a488 8a3d

lstm.bias_hh_l0 f4 [256]
-0.08963572 -0.0007473632 0.04774602 0.13740498 -0.05282929 0.08932191 0.08813843 -0.09369448
-0.075441346 -0.06084085 0.024190616 0.03689005 -0.08487837 0.01770599 0.11785979 0.07623775
0.042497728 0.04469662 -0.083873704 -0.09681662 0.0053542126 0.1273858 -0.017481135 0.046354283
0.09388781 -0.102050066 -0.023621263 0.024265012 -0.046502654 0.002927336 -0.103245735 0.0011699483
-0.030879643 0.117984325 0.046184976 -0.09686155 0.08629816 0.05454301 -0.11358382 0.1063514
-0.086025305 -0.09407232 0.0052466327 0.074143805 0.13195378 -0.076752536 -0.02689578 -0.033322215
-0.0596693 -0.064109564 -0.028642971 -0.069727 0.005160862 0.013557511 0.09289847 -0.053008277
0.10729314 0.0788461 0.1205975 -0.038973387 0.001989923 0.11181944 -0.12486759 0.0122477235
-0.02606848 0.100667536 0.06280019 -0.0072046514 -0.005945114 0.05421521 0.03731996 -0.06429407
0.045098737 -0.03204883 0.07869355 0.054516956 -0.023401031 -0.014405203 -0.051242117 -0.0713093
0.046419565 -0.08297277 0.08303293 0.010456181 0.12628669 0.025167981 -0.038791947 -0.02712725
-0.057026114 -0.032458223 0.0989919 -0.03627775 0.07942189 0.069695994 -0.04642372 -0.0566209
-0.049664482 0.12306397 -0.10131814 0.10497725 0.1429532 0.038001858 -0.108618416 -0.0218933
0.08020723 -0.04669556 -0.007843002 -0.11675097 -0.07615337 -0.0995308 0.06466408 -0.016198361
0.005587153 0.08626541 -0.09113574 0.11120477 0.105632044 -0.014797731 -0.13425529 -0.046131816
0.0031733823 -0.011836908 0.062478207 0.089125544 -0.026171234 -0.000991266 0.06046933 0.04411098
0.0971879 0.11766524 0.023140267 0.11935229 -0.022303883 0.1237527 -0.07731662 0.111148976
-0.049824934 0.01830369 0.009196491 0.050321177 0.12354353 0.026168207 0.1263564 -0.078252345
0.026635032 0.094835944 -0.10734759 0.04255153 -0.07437699 0.08167856 -0.10387928 -0.12618123
-0.022200901 0.07186802 -0.03244204 -0.04373114 0.050622385 -0.10901903 0.06838765 0.059914954
0.13099693 0.08044421 -0.046159435 -0.003244841 -0.12547855 -0.017588295 0.0061414526 -0.1199432
-0.0567535 0.01842295 0.1065074 -0.04124766 0.028221162 -0.049420483 -0.060082562 -0.062173206
-0.06444239 0.060652293 -0.09508691 0.041521445 -0.0061192373 0.0036986617 -0.11941527 -0.0390984
0.026440894 0.008176007 0.008209794 -0.10613493 0.0032176669 0.034508526 0.06910563 -0.10391044
0.060508296 -0.03415954 -0.05699407 0.02335091 0.034409475 -0.05895345 0.04806566 0.02778974
0.019609358 0.04311643 0.054625146 0.14042537 0.13409477 0.10454284 0.005670788 -0.08576421
-0.069612175 0.07719181 -0.057760045 -0.031771548 0.071430705 -0.04424664 -0.0045024464 0.12650053
0.083898924 0.056537945 0.07061345 0.024953946 0.11308152 -0.043258343 0.05622988 -0.05333717
0.0031191977 -0.0029716748 0.017744668 -0.13227819 -0.059709344 -0.08180904 -0.046451826 -0.076578304
-0.0057768407 0.054475185 0.036488462 0.080568396 0.13125259 0.079724126 0.1108477 0.03923616
0.13131005 0.091019355 -0.028170297 0.06737788 0.13986689 0.07915438 -0.13360526 0.07108429
-0.038594935 -0.060216635 -0.065675154 -0.1112407 -0.09885945 0.061534885 0.11329068 0.051476758
00000000: ef92 b7bd b2ea 43ba 5591 433d e4b3 0c3e
00000010: 8763 58bd 68ee b63d ec81 b43d e4e2 bfbd
00000020: fe80 9abd 4134 79bd 662b c63c 051a 173d
00000030: b6d4 adbd 270c 913c 7960 f13d 8a22 9c3d
00000040: 1912 2e3d ce13 373d fac5 abbd cb47 c6bd
00000050: 6472 af3b 6c71 023e 9934 8fbc fddd 3d3d
00000060: 4148 c03d a0ff d0bd 6181 c1bc 6bc7 c63c
00000070: 9179 3ebd 8cd8 3f3b 8072 d3bd f358 993a
00000080: 4ef7 fcbc c4a1 f13d 752c 3d3d 595f c6bd
00000090: 17bd b03d 7e68 5f3d a29e e8bd c3ce d93d
000000a0: 092e b0bd fda8 c0bd f2eb ab3b b5d8 973d
000000b0: e41e 073e 6f30 9dbd 8a54 dcbc e07c 08bd
000000c0: cc67 74bd e04b 83bd aaa4 eabc 08cd 8ebd
000000d0: 731c a93b 5320 5e3c 8e41 be3d 351f 59bd
000000e0: 81bc db3d 107a a13d d2fb f63d 8fa2 1fbd
000000f0: 5e69 023b 9701 e53d 94ba ffbd adaa 483c
00000100: 918d d5bc c82a ce3d 639d 803d ff14 ecbb
00000110: 3bcf c2bb c510 5e3d d0dc 183d 9cac 83bd
00000120: 74b9 383d a245 03bd 152a a13d 2c4d 5f3d
00000130: 85b3 bfbc cd03 6cbc 41e3 51bd 9c0a 92bd
00000140: 7122 3e3d a1ed a9bd 2b0d aa3d 6750 2b3c
00000150: 4c51 013e 152d ce3c 4ee4 1ebd f739 debc
00000160: 3794 69bd eaf2 04bd 44bc ca3d fa97 14bd
00000170: f2a7 a23d c6bc 8e3d cc26 3ebd 51eb 67bd
00000180: fc6c 4bbd f608 fc3d e37f cfbd 50fe d63d
00000190: 5362 123e d6a7 1b3d 5573 debd 9459 b3bc
000001a0: b043 a43d d843 3fbd ef7f 00bc 221b efbd
000001b0: 4cf6 9bbd ced6 cbbd 9a6e 843d 6db2 84bc
000001c0: 7014 b73b ebab b03d 60a5 babd 54bf e33d
000001d0: 9d55 d83d 2f72 72bc 387a 09be b7f4 3cbd
000001e0: 85f8 4f3b 97ef 41bc 26e9 7f3d 7487 b63d
000001f0: 0e65 d6bc 5eed 81ba b0ae 773d b7ad 343d
00000200: 730a c73d 79fa f03d a890 bd3c f96e f43d
00000210: a2b6 b6bc 0e72 fd3d 2d58 9ebd 13a2 e33d
00000220: 3b15 4cbd 9ff1 953c e1ac 163c 941d 4e3d
00000230: 6404 fd3d b55e d63c 9263 013e c442 a0bd
00000240: b631 da3c 5939 c23d 0ed9 dbbd 834a 2e3d
00000250: f752 98bd 1747 a73d a9be d4bd a735 01be
00000260: aade b5bc 8a2f 933d f2e1 04bd 6d1f 33bd
00000270: 6b59 4f3d 5f45 dfbd d30e 8c3d 6269 753d
00000280: 0f24 063e efbf a43d ad11 3dbd 66a7 54bb
00000290: 737d 00be 5415 90bc 3d3e c93b c8a4 f5bd
000002a0: 5c76 68bd baeb 963c 8d20 da3d 4ef3 28bd
000002b0: 1130 e73c 226d 4abd 2219 76bd 55a9 7ebd
000002c0: 5ffa 83bd 8a6e 783d edbc c2bd 6412 2a3d
000002d0: e283 c8bb 3f65 723b fe8f f4bd a525 20bd
000002e0: 939a d83c a9f4 053c 5f82 063c 455d d9bd
000002f0: 7edf 523b d058 0d3d 4187 8d3d ffce d4bd
00000300: 8cd7 773d e0ea 0bbd 9d72 69bd 684a bf3c
00000310: f3f0 0c3d 2c79 71bd 7fe0 443d 4fa7 e33c
00000320: cea3 a03c db9a 303d 9ebe 5f3d abcb 0f3e
00000330: 2450 093e 8e1a d63d 05d2 b93b 25a5 afbd
00000340: d490 8ebd bd16 9e3d cc95 6cbd e222 02bd
00000350: 434a 923d f73b 35bd 4289 93bb 5b89 013e
00000360: 33d3 ab3d 5594 673d c99d 903d 386c cc3c
00000370: 4997 e73d a92f 31bd 4d51 663d 1478 5abd
00000380: 746b 4c3b 6ec0 42bb 445d 913c ef73 07be
00000390: c991 74bd 7f8b a7bd 4544 3ebd 16d5 9cbd
000003a0: a74b bdbb 5f21 5f3d ed74 153d 0b01 a53d
000003b0: 1467 063e 6746 a33d 1e04 e33d 19b6 203d
000003c0: 2476 063e 5b68 ba3d 65c5 e6bc 6afd 893d
000003d0: 4439 0f3e b11b a23d d1cf 08be a494 913d
000003e0: b915 1ebd b8a5 76bd b280 86bd 2ad2 e3bd
000003f0: d376 cabd 010c 7c3d f204 e83d 4bd9 523d

lstm.weight_ih_l0_reverse f4 [256, 50]
0.04332954 0.10209487 -0.06513277 0.14999305 0.053464264 -0.025376914 0.10122924 -0.06680046
-0.09835987 -0.05952974 0.14415544 0.004809661 0.11890468 0.052625332 0.03583282 -0.004583356
-0.019956172 -0.017749425 -0.06338654 0.049084008 -0.07586119 -0.033070996 0.05003875 0.08653367
-0.1048142 0.07831781 -0.08126897 0.03516782 0.007965603 -0.036753736 -0.015142254 0.008387314
0.05273535 0.009086272 0.07864492 0.08343321 -0.002613329 -0.17068124 -0.042249605 -0.07198546
0.0653379 0.10669205 -0.12661672 0.06286266 -0.034682974 -0.14007029 0.005567584 0.12713236
0.004000088 -0.05684656 -0.0127301365 -0.023871407 0.09788452 -0.054450814 -0.123515785 0.02736425
0.071069315 -0.03380123 -0.12917247 -0.026431363 0.05004541 -0.13647051 0.083506145 0.13674931
0.023642724 -0.009104182 -0.03727145 -0.042706028 -0.004555226 0.07288069 -0.019243503 -0.018061662
0.043626662 -0.13600828 -0.06198953 0.050495375 -0.113019384 -0.085879914 -0.029737845 0.054097977
-0.13553001 -0.042834803 0.05749232 0.033626266 -0.018503966 0.0076084775 0.10639215 -0.0065854914
-0.031900883 0.13970225 -0.04773083 0.0146496175 0.13161556 -0.014558667 0.14860788 -0.115398906
0.099678576 -0.13690208 -0.01101051 0.08543044 -0.08246612 -0.038167767 0.009177994 -0.05248805
0.030859627 -0.05531405 0.013751697 -0.08805449 -0.005929612 -0.145234 0.083952725 0.08556438
-0.13051611 0.10298643 0.0306634 -0.027670642 -0.05705708 -0.039426044 -0.021998728 0.026651256
-0.1454244 -0.08933252 0.07778886 0.024892183 0.10582118 0.076489866 -0.11221346 -0.1189649
-0.021642232 0.07148295 0.02772545 -0.01711077 -0.09455551 -0.115126856 -0.06594761 -0.13473587
0.097286366 0.028946405 -0.01380534 0.107787505 0.040640924 -0.09934579 0.005726828 0.1515092
-0.0053465804 -0.034042593 0.032864105 0.11413783 -0.08659725 -0.07711862 0.049725525 -0.068674065
-0.051578943 0.06469343 0.016374707 0.008480783 0.03413303 -0.0017782112 -0.076730795 0.013949371
-0.05146882 0.14198458 -0.032845058 0.119461246 0.10792336 0.102873564 -0.09001375 -0.047328774
0.10226478 -0.01436476 0.06759264 0.06637865 -0.09571983 -0.10243489 -0.009958028 0.06583238
-0.088119276 0.049294464 -0.05424879 -0.03568228 0.08258914 -0.019829586 -0.062391497 0.06989537
0.04754806 0.11071276 0.096048355 0.06194815 0.050022278 -0.009325069 -0.107914254 -0.10280413
0.08909459 -0.06838737 -0.046913266 -0.023337584 0.08687049 0.10173912 0.09234385 -0.0008455169
-0.037897695 0.0030860184 0.04323291 0.030152705 0.07217601 0.02062998 -0.034875434 -0.039780512
-0.037496403 -0.13800445 -0.10077729 -0.047971435 0.11126608 0.08059255 -0.02025053 0.018163783
-0.14582565 0.05120566 -0.10259348 0.016655806 -0.089198805 0.10012091 0.057226487 -0.052999362
0.04286735 -0.07895962 -0.0939816 -0.019553674 -0.057440862 -0.008269607 -0.044736292 0.085177824
0.09256801 0.00046203943 -0.085562155 -0.0030014215 0.13684873 0.12760094 0.076586016 -0.14781266
0.005293024 -0.027100911 0.08782572 -0.070821464 0.07171149 -0.06443411 0.0063700234 -0.013694159
-0.015628451 0.09904154 -0.05272036 0.10008317 0.050507084 0.049529135 0.13729104 0.073968396
00000000: 517a 313d 1d17 d13d 5464 85bd c797 193e
00000010: 58fd 5a3d 3fe3 cfbc 4751 cf3d aece 88bd
00000020: e670 c9bd 75d5 73bd 7c9d 133e 5c9a 9d3b
00000030: 4c84 f33d a98d 573d 6fc5 123d fa2f 96bb
00000040: 207b a3bc 3e67 91bc cdd0 81bd 500c 493d
00000050: 1d5d 9bbd 7475 07bd 6ff5 4c3d 9138 b13d
00000060: d4a8 d6bd 1765 a03d 5970 a6bd 220c 103d
00000070: 2982 023c 168b 16bd 3717 78bc f26a 093c
00000080: 0601 583d 96de 143c 9610 a13d 08df aa3d
00000090: 6344 2bbb 10c7 2ebe ec0d 2dbd 1d6d 93bd
000000a0: e0cf 853d 5d81 da3d d0a7 01be 23be 803d
000000b0: bc0f 0ebd 966e 0fbe 4870 b63b fc2e 023e
000000c0: 2c13 833b f0d7 68bd 1092 50bc f88d c3bc
000000d0: ae77 c83d d107 5fbd d8f5 fcbd fe2a e03c
000000e0: ca8c 913d 2973 0abd ca45 04be 9686 d8bc
000000f0: 6afc 4c3d edbe 0bbe 4505 ab3d 0308 0c3e
00000100: 63ae c13c b529 15bc f3a9 18bd 84ec 2ebd
00000110: 0144 95bb 7942 953d 8da4 9dbc 0df6 93bc
00000120: dfb1 323d c145 0bbe bce8 7dbd 3dd4 4e3d
00000130: b576 e7bd cfe1 afbd c89c f3bc d795 5d3d
00000140: 61c8 0abe 8c73 2fbd 117d 6b3d b2bb 093d
00000150: a195 97bc 8950 f93b 21e4 d93d 1bcb d7bb
00000160: 80aa 02bd 1b0e 0f3e 6781 43bd f304 703c
00000170: 3bc6 063e 7a87 6ebc aa2c 183e 4356 ecbd
00000180: 4824 cc3d 0f30 0cbe 6d65 34bc 28f6 ae3d
00000190: ffe3 a8bd ce55 1cbd 4c5f 163c b6fd 56bd
000001a0: 54cd fc3c fc90 62bd cc4e 613c ea55 b4bd
000001b0: 314d c2bb 39b8 14be 68ef ab3d 613c af3d
000001c0: 04a6 05be 8dea d23d d031 fb3c 8bad e2bc
000001d0: afb4 69bd 347d 21bd ad36 b4bc bc53 da3c
000001e0: 22ea 14be f8f3 b6bd c44f 9f3d b1ea cb3c
000001f0: c6b8 d83d b8a6 9c3d 2cd0 e5bd dfa3 f3bd
00000200: 0d4b b1bc a765 923d 7c20 e33c e32b 8cbc
00000210: 52a6 c1bd a1c7 ebbd 8a0f 87bd 33f8 09be
00000220: 133e c73d 0321 ed3c cb2f 62bc b2bf dc3d
00000230: 1977 263d ce75 cbbd 1da8 bb3b 3a25 1b3e
00000240: 5e32 afbb 3f70 0bbd 839c 063d 18c1 e93d
00000250: e659 b1bd 5ef0 9dbd feac 4b3d fda4 8cbd
00000260: 7144 53bd fd7d 843d 4024 863c fbf2 0a3c
00000270: 13cf 0b3d de12 e9ba 0925 9dbd e78b 643c
00000280: f8d0 52bd 6864 113e 8a88 06bd 19a8 f43d
00000290: ec06 dd3d 60af d23d 2159 b8bd d1db 41bd
000002a0: 3270 d13d 2c5a 6bbc 036e 8a3d 88f1 873d
000002b0: c208 c4bd 62c9 d1bd ff26 23bc 20d3 863d
000002c0: e177 b4bd fee8 493d fb33 5ebd 9527 12bd
000002d0: 7f24 a93d a871 a2bc 3a8e 7fbd 4e25 8f3d
000002e0: c1c1 423d 5fbd e23d 00b5 c43d 58bd 7d3d
000002f0: 29e4 4c3d 2dc8 18bc 2602 ddbd f98a d2bd
00000300: 3977 b63d ad0e 8cbd 2028 40bd 762e bfbc
00000310: 28e9 b13d 9a5c d03d c61e bd3d aea5 5dba
00000320: 9d3a 1bbd cc3e 4a3b fe14 313d ce02 f73c
00000330: 04d1 933d 3400 a93c 8bd9 0ebd e4f0 22bd
00000340: d495 19bd 0a51 0dbe 5364 cebd b27d 44bd
00000350: 78df e33d b50d a53d 71e4 a5bc 37cc 943c
00000360: 5253 15be 07bd 513d 881c d2bd c271 883c
00000370: ddad b6bd 310c cd3d 5266 6a3d dc15 59bd
00000380: ad95 2f3d 95b5 a1bd 6d79 c0bd 072f a0bc
00000390: 1c47 6bbd 3f7d 07bc 673d 37bd b671 ae3d
000003a0: 4c94 bd3d e23d f239 363b afbd 7fb3 44bb
000003b0: 1322 0c3e d2a9 023e 21d9 9c3d 345c 17be
000003c0: 1a71 ad3b bb02 debc f9dd b33d d80a 91bd
000003d0: 79dd 923d 08f6 83bd a1bb d03b 775d 60bc
000003e0: 3d07 80bc 4ad6 ca3d 4ef1 57bd 68f8 cc3d
000003f0: 84e0 4e3d 10df 4a3d 0696 0c3e be7c 973d

lstm.weight_hh_l0_reverse f4 [256, 64]
-0.17364061 -0.06758003 -0.01948528 0.1811102 -0.074286565 0.014000632 -0.056940828 0.021935154
0.09589662 -0.1591241 -0.028914036 -0.15720806 0.08815145 -0.04885404 -0.09750311 0.024180789
0.045406792 -0.05265974 -0.08477804 -0.03042939 0.15066816 -0.099674955 -0.08971822 0.16754578
-0.110399656 0.15139847 -0.013312637 -0.020393455 0.10150089 -0.067152075 0.017439986 -0.12494157
0.072519474 0.022730233 0.07451989 0.032176282 -0.09333205 0.056975547 0.16200309 0.08476568
-0.06983698 -0.04472847 0.021391965 -0.037768565 -0.17827567 -0.052467916 -0.065201014 -0.053349037
-0.019299 -0.04014047 0.062155697 -0.022887636 0.16607277 0.044457667 0.01969843 0.14070182
-0.014670768 0.009505544 -0.059757583 0.15128598 0.018150527 0.011320719 -0.09751303 -0.05123116
-0.024943225 -0.003360788 -0.078949034 0.09512383 -0.023087261 0.15832263 0.09398291 -0.053436343
0.015194262 -0.114063896 0.050982304 0.06463067 -0.107883275 -0.015983835 -0.07369633 0.014092658
0.16427128 -0.0032217419 0.092031576 0.069857135 -0.04768552 0.025707532 0.04073003 0.06669306
0.10377887 -0.01773388 0.064519875 -0.0069986386 -0.068220034 -0.05384703 -0.08994928 -0.08407137
-0.09715481 0.014902903 0.040109582 -0.06647885 0.05541932 0.0850747 0.11291403 0.037155908
0.050470218 -0.06799984 0.102375545 0.13742195 -0.023708059 0.09498474 -0.06739002 -0.048829477
0.043260027 -0.07638719 0.034598183 0.08444104 -0.014006693 -0.17339589 -0.016722633 0.0888638
0.07550594 -0.13717088 -0.024110533 0.08289234 -0.016797973 0.10541886 -0.09127313 0.023803506
0.030047458 -0.116440564 -0.05569839 -0.010186624 -0.014380122 0.1626466 0.040665116 0.039538816
0.039479 -0.010363532 0.056074925 -0.03696001 0.04447663 0.0070405435 0.09628383 -0.058248144
0.007650003 -0.026871508 0.019051732 -0.10152792 0.09968208 -0.11596931 0.01863166 -0.01881639
0.13683249 0.033625226 0.060037434 -0.14832386 0.010680488 -0.045114625 0.07189784 0.0216859
0.009031949 -0.14033882 0.0709089 -0.00094842096 0.056335725 0.12150605 -0.011308928 -0.05683167
-0.012908134 0.041140728 0.04696453 0.0065801833 0.00838805 0.02930256 0.037801743 0.13694438
-0.072191276 0.016805667 -0.046938557 0.117735855 -0.08709355 -0.07634759 -0.042168166 -0.055367168
-0.13006938 -0.0017627707 0.0154907955 -0.045722287 0.0020015163 0.13112167 0.0071631917 0.043460097
0.056267597 0.0030464423 0.06770281 0.10526233 -0.0744537 0.05720467 0.07133009 0.039699867
-0.14593793 0.018530224 -0.07830699 0.07974868 0.052431926 -0.06286168 0.0030594177 0.12360705
0.07914439 0.042006806 0.10980649 0.016536092 0.024281815 -0.06516639 -0.092017435 0.008825804
0.07337279 0.119018465 0.15421523 0.052744675 -0.014351189 0.08332355 0.011038926 -0.046965845
0.050055813 -0.021909509 -0.13847269 -0.09682244 0.047357406 0.066538885 0.0671685 0.14076567
0.06435549 -0.0739166 -0.111403875 0.11690295 -0.008084584 -0.060314633 0.09529441 0.09130246
0.044945326 0.06684079 -0.06770118 0.058050185 -0.025877899 0.039637003 0.007964858 0.11021001
-0.09048794 -0.10291227 0.00958182 0.036325604 0.03032953 -0.044159662 0.0015318337 0.028056426
00000000: d8ce 31be 6667 8abd 989f 9fbc f474 393e
00000010: 8e23 98bd e862 653c c93a 69bd 5ab1 b33c
00000020: 7265 c43d 6ef1 22be 21dd ecbc 26fb 20be
00000030: bf88 b43d 2d1b 48bd b6af c7bd ca16 c63c
00000040: 79fc 393d bdb1 57bd 1ca0 adbd 0e47 f9bc
00000050: c148 1a3e 6222 ccbd 30be b7bd 1f91 2b3e
00000060: 3719 e2bd 3308 1b3e 3f1d 5abc 2d10 a7bc
00000070: b3df cf3d 0787 89bd 4dde 8e3c 5ee1 ffbd
00000080: 1785 943d c134 ba3c e29d 983d 47cb 033d
00000090: e024 bfbd 315f 693d 23e4 253e a199 ad3d
000000a0: b106 8fbd 3335 37bd 343e af3c 36b3 1abd
000000b0: e68d 36be 99e8 56bd 1c88 85bd 8584 5abd
000000c0: f018 9ebc 556a 24bd f996 7e3d da7e bbbc
000000d0: fb0e 2a3e 3e19 363d 9a5e a13c 2314 103e
000000e0: a95d 70bc 24bd 1b3c 5ec4 74bd b6ea 1a3e
000000f0: 6ab0 943c 897a 393c e9b4 c7bd c4d7 51bd
00000100: bc55 ccbc ab40 5cbb 08b0 a1bd 48d0 c23d
00000110: 7f21 bdbc 541f 223e 1d7a c03d 11e0 5abd
00000120: 5bf1 783c 559a e9bd d2d2 503d 165d 843d
00000130: e8f1 dcbd 88f0 82bc 1aee 96bd e4e4 663c
00000140: bb36 283e dc23 53bb 0d7b bc3d 4211 8f3d
00000150: e451 43bd 9a98 d23c 88d4 263d 5f96 883d
00000160: 048a d43d a446 91bc ff22 843d d654 e5bb
00000170: f2b6 8bbd b48e 5cbd 5437 b8bd 9c2d acbd
00000180: 1af9 c6bd 4e2b 743c f249 243d 1026 88bd
00000190: 5eff 623d a53b ae3d 793f e73d cb30 183d
000001a0: dcb9 4e3d 8043 8bbd 45aa d13d 57b8 0c3e
000001b0: 6737 c2bc 5c87 c23d c703 8abd 6b01 48bd
000001c0: 6d31 313d e370 9cbd d3b6 0d3d 6def ac3d
000001d0: 547c 65bc b18e 31be e7fd 88bc 39fe b53d
000001e0: dca2 9a3d 8676 0cbe 7483 c5bc 76c3 a93d
000001f0: e79b 89bc d8e5 d73d 68ed babd 92ff c23c
00000200: 1626 f63c 6478 eebd ff23 64bd cce5 26bc
00000210: 9a9a 6bbc d58c 263e 7790 263d 74f3 213d
00000220: bbb4 213d cecb 29bc d2ae 653d 6163 17bd
00000230: 202d 363d 5cb4 e63b 7530 c53d 9b95 6ebd
00000240: e0ac fa3b a321 dcbc 6112 9c3c dfed cfbd
00000250: 1e26 cc3d 5181 edbd 6ca1 983c d424 9abc
00000260: d11d 0c3e 9bba 093d d0e9 753d 36e2 17be
00000270: 37fd 2e3c 1dca 38bd 2d3f 933d a1a6 b13c
00000280: bdfa 133c fbb4 0fbe af38 913d 749f 78ba
00000290: 4ac0 663d 2ad8 f83d 1549 39bc 53c8 68bd
000002a0: a37c 53bc 2e83 283d e15d 403d 949e d73b
000002b0: 086e 093c ec0b f03c 00d6 1a3d 263b 0c3e
000002c0: 05d9 93bd 0aac 893c a542 40bd 7f1f f13d
000002d0: 1a5e b2bd 205c 9cbd 87b8 2cbd afc8 62bd
000002e0: e830 05be c50c e7ba 1bcd 7d3c 4b47 3bbd
000002f0: df2b 033b c244 063e 35b9 ea3b 3703 323d
00000300: da78 663d d2a6 473b c5a7 8a3d c793 d73d
00000310: 2e7b 98bd 724f 6a3d 8315 923d 549c 223d
00000320: c170 15be b2cc 973c 6a5f a0bd 4753 a33d
00000330: dcc2 563d a0bd 80bd 8380 483b b125 fd3d
00000340: 7416 a23d 540f 2c3d 3ae2 e03d b376 873c
00000350: a8ea c63c f575 85bd a373 bcbd 1b9a 103c
00000360: 7944 963d f4bf f33d 99ea 1d3e cd0a 583d
00000370: 4021 6bbc 8aa5 aa3d 9ddc 343c 425f 40bd
00000380: 5307 4d3d 927b b3bc c9cb 0dbe d84a c6bd
00000390: d7f9 413d 8a45 883d a38f 893d e024 103e
000003a0: d0cc 833d 9661 97bd b727 e4bd d06a ef3d
000003b0: 3475 04bc 7a0c 77bd b729 c33d c9fc ba3d
000003c0: 9718 383d d3e3 883d eba6 8abd 08c6 6d3d
000003d0: e3fd d3bc 695a 223d 097f 023c c9b5 e13d
000003e0: be51 b9bd abc3 d2bd 11fd 1c3c 28ca 143d
000003f0: a275 f83c c3e0 34bd cfc7 c83a 97d6 e53c

lstm.bias_ih_l0_reverse f4 [256]
0.10873342 0.010359194 -0.012103207 -0.058749378 -0.059044495 -0.044406835 -0.07439585 0.016256103
-0.046352934 0.080793016 -0.04935959 0.0669074 -0.058335844 0.17340893 -0.037303824 0.07984496
0.012615912 0.11369529 0.078587204 -0.029473692 0.066100836 0.0017513281 0.12538606 0.065764785
-0.04353218 0.096972115 0.022789786 0.13425875 0.052653782 -0.014120967 0.046320558 0.14799234
-0.06488136 0.066101305 0.07572941 0.06273143 0.114937186 -0.050548192 0.014864998 -0.043267637
0.11970323 -0.07205445 -0.068856575 -0.047664717 0.11940741 -0.08047409 0.021737514 0.12141183
0.08892527 -0.005879876 -0.054104004 0.02153148 -0.01451357 0.02611005 -0.015303101 0.13968064
0.08812013 0.0043338966 0.13448223 0.16029467 0.05755227 0.0008054018 0.12689053 0.020970292
-0.11235208 0.059212778 -0.003376502 0.1214057 0.112575375 0.035132717 0.035584908 0.10878552
0.025831912 0.0220733 -0.09846425 0.011440586 -0.010707194 0.079124175 -0.09994903 -0.04300429
0.13645594 0.07563066 0.01937696 -0.03669739 0.05495328 -0.02673618 -0.027887031 0.01155359
0.15923716 -0.03470984 0.033310674 -0.06366746 0.04831393 0.008015977 0.07861417 0.035316978
0.12311361 0.14012216 0.12993136 0.051641487 0.047656536 0.0119293695 -0.06724087 -0.07706422
0.044554517 0.044073775 0.09011038 -0.016207404 0.09198526 0.0071850675 0.11960183 -0.021003205
-0.101534516 0.0987887 0.06620668 0.05840806 -0.003854957 0.14385065 0.069029674 0.053329963
-0.083667725 0.07888769 -0.05606315 -0.053244706 -0.024680104 0.059930585 0.0059009246 0.09726922
-0.093109675 0.026091667 0.13058946 0.11038931 -0.015021989 0.06926925 0.120183714 0.02408413
0.056731418 9.743467e-05 -0.14028251 0.036448743 0.134209 0.14512445 -0.09447371 -0.028818702
0.062916346 0.08910058 0.06651774 0.04861618 0.16020069 0.09825942 0.124302365 0.04795718
0.023430247 -0.02810009 -0.03470483 -0.07388484 -0.09338274 -0.06711832 0.047170233 -0.04289113
0.13485254 -0.009429168 -0.016578073 0.081912816 -0.07901111 -0.0025169302 -0.10681316 -0.04260651
-0.064577036 -0.006718888 0.066516235 -0.040331736 0.08272868 -0.09164448 -0.045395836 0.08893899
-0.07492575 0.10458242 -0.1199027 0.11296398 -0.08560957 -0.026265793 -0.026512522 0.14157271
0.08301837 0.037316807 -0.11637906 -0.089596 0.0062628887 -0.017031066 -0.030124053 0.042319648
0.078368925 0.034459855 0.01676302 -0.00091561885 0.004143704 0.10807411 -0.022854807 0.007017693
0.15862651 -0.016702438 0.15023361 0.015872505 0.11212366 0.055743694 -0.013624672 0.16634884
0.03179297 0.09817845 0.049004406 0.074726336 -0.052438717 0.09006025 0.11629354 0.031064596
0.07909399 0.14760508 -0.026690444 0.038542397 0.052898902 0.0026676948 -0.060357254 -0.05222674
0.13980785 0.1336471 0.14263569 -0.0050325287 -0.053009283 0.023672888 -0.048880693 0.01699136
0.07102073 0.052328493 -0.060031597 0.038781792 0.10994983 0.15532212 -0.050904583 0.15412594
0.09207219 -0.029421447 0.11804964 0.035074335 0.028293857 -0.0438023 0.0055643143 0.075006716
0.13989021 0.070997216 0.05606843 0.05573213 0.11666738 0.0034576873 0.07366892 0.0067066047
00000000: a1af de3d 9cb9 293c 884c 46bc 30a3 70bd
00000010: a4d8 71bd f1e3 35bd da5c 98bd 852b 853c
00000020: 93dc 3dbd cf76 a53d 482d 4abd bf06 893d
00000030: 91f1 6ebd 1c92 313e e5cb 18bd c185 a33d
00000040: f8b2 4e3c 14d9 e83d 54f2 a03d d072 f1bc
00000050: e05f 873d d28c e53a 3465 003e b0af 863d
00000060: cd4e 32bd 5199 c63d a5b1 ba3c 207b 093e
00000070: 7eab 573d a15b 67bc a0ba 3d3d 4e8b 173e
00000080: 85e0 84bd 1f60 873d 0518 9b3d 5679 803d
00000090: 3064 eb3d 9f0b 4fbd 528c 733c 6839 31bd
000000a0: f826 f53d 4991 93bd ad04 8dbd 143c 43bd
000000b0: df8b f43d 9acf a4bd df12 b23c c4a6 f83d
000000c0: 741e b63d faab c0bb 299c 5dbd c962 b03c
000000d0: 53ca 6dbc bee4 d53c dcb9 7abc 7108 0f3e
000000e0: 5478 b43d 5c03 8e3b b6b5 093e 4924 243e
000000f0: eebb 6b3d 9a21 533a 97ef 013e e4c9 ab3c
00000100: d918 e6bd 1989 723d 4e48 5dbb 8da3 f83d
00000110: eb8d e63d 53e7 0f3d 7bc1 113d f1ca de3d
00000120: 729d d33c 11d3 b43c a0a7 c9bd 4c71 3b3c
00000130: 3a6d 2fbc db0b a23d 14b2 ccbd 4425 30bd
00000140: 1bbb 0b3e 3fe4 9a3d 6ebc 9e3c 0150 16bd
00000150: b116 613d d505 dbbc 5873 e4bc 454b 3d3c
00000160: 110f 233e e82b 0ebd c670 083d 1664 82bd
00000170: d4e4 453d 7255 033c 7700 a13d 89a8 103d
00000180: fd22 fc3d 2f7c 0f3e ba0c 053e 0686 533d
00000190: 8033 433d 6773 433c 95b5 89bd d9d3 9dbd
000001a0: cc7e 363d b486 343d ca8b b83d 64c5 84bc
000001b0: c562 bc3d b770 eb3b cef1 f43d ea0e acbc
000001c0: 54f1 cfbd bb51 ca3d 5e97 873d 4a3d 6f3d
000001d0: 72a3 7cbb 964d 133e 6e5f 8d3d 8570 5a3d
000001e0: fc59 abbd df8f a13d 79a2 65bd 1f17 5abd
000001f0: ee2d cabc c679 753d 8b5c c13b 1635 c73d
00000200: 49b0 bebd 31be d53c 3eb9 053e ca13 e23d
00000210: ca1e 76bc 09dd 8d3d e122 f63d 154c c53c
00000220: 345f 683d d755 cc38 38a6 0fbe 474b 153d
00000230: 166e 093e 819b 143e 6f7b c1bd 3315 ecbc
00000240: 49da 803d 5d7a b63d 743a 883d c221 473d
00000250: a60b 243e 3c3c c93d 3d92 fe3d bf6e 443d
00000260: caf0 bf3c 2932 e6bc a726 0ebd ef50 97bd
00000270: 733f bfbd 5475 89bd 9335 413d 9cae 2fbd
00000280: c916 0a3e cc7c 1abc bdce 87bc e8c1 a73d
00000290: 94d0 a1bd 15f3 24bb dcc0 dabd 2a84 2ebd
000002a0: f740 84bd 1e2a dcbb aa39 883d e432 25bd
000002b0: a76d a93d 1ab0 bbbd fcf0 39bd a525 b63d
000002c0: ac72 99bd 4f2f d63d 8c8f f5bd a959 e73d
000002d0: 1254 afbd 5c2b d7bc ca30 d9bc 70f8 103e
000002e0: 8905 aa3d 82d9 183d 2558 eebd 1c7e b7bd
000002f0: eb38 cd3b bc84 8bbc b8c6 f6bc 5e57 2d3d
00000300: e37f a03d c725 0d3d 9a52 893c 2406 70ba
00000310: e9c7 873b f555 dd3d 013a bbbc adf4 e53b
00000320: fd6e 223e 8dd3 88bc d7d6 193e 0e07 823c
00000330: 17a1 e53d 8053 643d 043a 5fbc 5a57 2a3e
00000340: 5839 023d c811 c93d d8b8 483d 1f0a 993d
00000350: fbc9 56bd 8271 b83d 4f2b ee3d 2e7b fe3c
00000360: 08fc a13d c925 173e eba5 dabc a2de 1d3d
00000370: 85ac 583d 7ed4 2e3b 2b39 77bd b5eb 55bd
00000380: ca29 0f3e c9da 083e 170f 123e e9e7 a4bb
00000390: 4320 59bd a5ed c13c 1f37 48bd 7731 8b3c
000003a0: 5173 913d 6756 563d b1e3 75bd a8d9 1e3d
000003b0: 602d e13d c30c 1f3e 5381 50bd 31d3 1d3e
000003c0: 5890 bc3d 3f05 f1bc 02c4 f13d 1baa 0f3d
000003d0: 85c8 e73c 0a6a 33bd da54 b63b 1f9d 993d
000003e0: 613f 0f3e fd66 913d 03a8 653d 6047 643d
000003f0: 4fef ee3d 5e9a 623b bbdf 963d 14c3 db3b
