utilities/model/intent_model_full.pth (torch, 274433 bytes, 11 tensors)

weight f4 [155, 50]
00000000: 5c9d 193f cde3 183f 31a8 a4bf 540d 85be
00000010: a8bf c9be f162 ff3b e7a7 d93f f8d1 493f
00000020: b27d 70bf 8bad 1ebe f4a5 073e 37cd 56bf
00000030: 1b88 0840 c8c5 8f3f 311d 0f3f 09ad 0dc0
00000040: 97f0 30bf b2d2 733f 427e 4dc0 e08c 293f
00000050: 9171 2dbf ac12 80be f8d3 c6be c35a c13d
00000060: 68f7 86bd 8b2f c8be 7c4b d8bd 9e64 d3bf
00000070: f3c9 f23d ac7b 0cc0 7adf 773f 5d56 9dbe
00000080: 31a4 dbbf e573 cabf eafc 02c0 bb25 6e3f
00000090: a9d8 c83e d7d4 87bf 605f d03f cfd1 5f3f
000000a0: 472e 60bf 628d 59bf 63dc 47bf 9eb3 123f
000000b0: bd3f eb3e 466a 8abf 27af c2be 1a36 19bf
000000c0: cf9b c7be a560 05be a087 c53f db7b 3dbe
000000d0: 9e5a a8be 8d18 c13f d9b9 2dbe 0ed4 a6bf
000000e0: 70ab 4e3e ac5f 07c0 02de bebf 4e5f 9bbe
000000f0: d559 b13e 1359 09bf 269e 9cbf 697f 043e
00000100: a010 7e3e a194 203f 2725 473e 0804 54be
00000110: f355 f03e ca6c 38be 6081 0440 0871 173e
00000120: dcdf f53e dc7d c0be 126c 903f 2cd0 75bc
00000130: 9f98 8b3e ef78 f5be ccd9 d83e 608b 7e3f
00000140: 4960 a3be 8ae2 153f b69b 843f 5af9 48bf
00000150: 0f4d 3ebf 603a 5a3f 4506 943f 3c14 7dbf
00000160: c8a9 89bf 28dd 5ebf b785 61bf e6dc 403f
00000170: 194c 4fbf afd6 ef3f dcb7 903f 6696 05c0
00000180: 93a4 b03c 67ae 37bf 4bb6 aabe 577f 683f
00000190: ddfb 51bf 9d6a 233f eeef 40bf 7d0f 99bf
000001a0: 714d d73f 0eab 1abf c197 cd3e cd0b 5abf
000001b0: 1da4 74bf 7727 0740 d1a0 84bf 42f9 a33e
000001c0: 7cb5 6dbf 9ee1 643f d434 21bf a7c1 33bf
000001d0: 95e4 3a3f 3f7b 11bf eae0 cc3d 0f97 2b3f
000001e0: 139d 763f 45af 1abf 837e ccbe b7ad 8ebe
000001f0: cc85 a2bd aa0a fdbf e7cd 3dbe 71d1 0bbf
00000200: 9bcc f2bf b366 fe3e e65f d13c 1b09 203f
00000210: d02f efbe 8d6d 6a3f 2fdf 08bf 4b00 68bf
00000220: 0978 4b3e 29aa 7abf cf8b f0bd 7045 04bf
00000230: ae1e c93f c288 80bf ec9f cfbf 1f73 73bf
00000240: b046 bf3f a310 08bf f9fb 153f 79a5 6dbf
00000250: fe9d 4dbf e5a3 b039 1925 f13f 9373 5ebf
00000260: c1b5 7bbe 4323 103f a35a e1bf 4d50 99be
00000270: 93b3 b23e 699d 8a3f df5a 1c3e e56a e8bf
00000280: 6b29 6f3e 844e 77bd 7470 bcbe 514b 0c3f
00000290: c2bb 273f f868 ba3f 8fe3 713e 3efe 863f
000002a0: 30ae a03f fb63 e63f a630 5f3f 503f 943f
000002b0: 3e29 88bf f5f6 7fbf 4641 1e40 0b3c 403e
000002c0: dc07 023f 70eb 183f 15f3 64bf 3f06 4b3e
000002d0: 3230 7dbf 83de 9cbf c9e4 3cc0 79b1 14be
000002e0: 20c4 fdbf 649a 5dbe 3676 ad3e 204c b4be
000002f0: 2680 373f 2d70 a0bf 12e0 843e 8403 30bd
00000300: 00e2 6d3f 4fe2 fd3e 6090 d0bf 1e02 a63f
00000310: dcfd 8dbf a9df 87be d760 163e f59b 6ebf
00000320: 036d 4dc0 1ab9 0c3f 3c62 fcbe 3ef8 823c
00000330: 12fa cf3e eeea 883f a0e6 503e 5c2f 263f
00000340: ed1e 733f 8efb 353f ff93 913f 7fe2 cdbe
00000350: 2cde cbbe b5c2 4cbf 608e f7bf faa6 f2bf
00000360: 63b0 313c 1322 103f 94d0 24bf f611 22bf
00000370: 8da4 44be 6825 0ac0 de95 cfbf 386e b7bf
00000380: e57b a2bf 6784 6cbf ec93 1540 8114 403f
00000390: d340 23bf 3f16 23bf 89f8 ccbf c8b2 7e3f
000003a0: fe7c 4abf 6594 ec3e d585 3b3f f766 853f
000003b0: 2f94 01bf c88f d43e 08e0 97bc ac83 47bf
000003c0: 58c4 1a3e c8d3 403d 234f 7b3f f991 8abf
000003d0: beb7 273f ddc7 c93f 5574 85bf 3735 02bf
000003e0: dd21 f93f 7016 e4be a423 92bf 516e 363f
000003f0: 15f3 a13d c906 05bf e7bd 38bf 831c f4be
0.60005736 0.59722596 -1.2863828 -0.2598673 -0.39404035 0.007793777 1.7004365 0.7883601
-0.93941796 -0.15495889 0.132469 -0.83906883 2.1333072 1.1232233 0.5590392 -2.2136862
-0.6911711 0.9524337 -3.2108312 0.66230583 -0.67751414 -0.25014246 -0.38833594 0.094411395
-0.06590158 -0.39098772 -0.105612725 -1.6515081 0.11854925 -2.1950483 0.96825373 -0.30729952
-1.7159482 -1.5816618 -2.0466866 0.9302632 0.392278 -1.0611829 1.6279106 0.8742952
-0.87570614 -0.8498136 -0.7807066 0.57305324 0.45947066 -1.0813682 -0.38024256 -0.5984818
-0.3898606 -0.13025148 1.5432014 -0.18504278 -0.32881635 1.5085617 -0.16965427 -1.3033464
0.20182586 -2.1152143 -1.4911501 -0.3034615 0.3463885 -0.5365154 -1.2235763 0.12939228
0.2481103 0.6272679 0.19447766 -0.20704663 0.46940574 -0.1801025 2.0703964 0.14789212
0.48022354 -0.37596023 1.128298 -0.015003245 0.27264878 -0.47943828 0.42353666 0.9943142
-0.31909397 0.58548796 1.0360019 -0.7850548 -0.7433633 0.85245323 1.1564413 -0.98859
-1.0754938 -0.8705621 -0.8809466 0.75337064 -0.8097549 1.8737391 1.130611 -2.0873046
0.02156285 -0.7175049 -0.33342203 0.90819305 -0.8202494 0.63834554 -0.75366104 -1.1957852
1.6820508 -0.6041726 0.40154842 -0.85174257 -0.95562917 2.1117837 -1.0361577 0.32026106
-0.9285505 0.89406765 -0.62971234 -0.70217365 0.7300504 -0.56828684 0.100038365 0.6702737
0.96333426 -0.6042369 -0.3994027 -0.2786691 -0.07935676 -1.976888 -0.18535577 -0.5461646
-1.8968691 0.49687728 0.025558423 0.62513894 -0.46716166 0.9157341 -0.5346555 -0.9062545
0.19870009 -0.97915894 -0.117454164 -0.51668453 1.5712488 -1.0041735 -1.6220679 -0.95097536
1.4943447 -0.53150386 0.58587605 -0.92830616 -0.803192 0.00033691447 1.8839446 -0.868951
-0.24581052 0.56303805 -1.7605785 -0.29944077 0.3490263 1.0829288 0.1526904 -1.8157622
0.23355643 -0.060377613 -0.36804545 0.54802424 0.6552087 1.4563284 0.23621963 1.0546339
1.2553158 1.7999262 0.87183607 1.1581821 -1.0637586 -0.999862 2.472734 0.18772905
0.5079324 0.5973425 -0.89433414 0.19826601 -0.98901665 -1.2255405 -2.951464 -0.14520825
-1.9825478 -0.21640927 0.3387925 -0.3521433 0.71679914 -1.2534233 0.25952202 -0.042972103
0.92922974 0.49586722 -1.629406 1.2969396 -1.1093097 -0.26537827 0.14685379 -0.9320672
-3.2097785 0.5496994 -0.49293697 0.015987512 0.40620476 1.0696695 0.20400476 0.64916015
0.94969064 0.71086967 1.137329 -0.40211865 -0.3981794 -0.799846 -1.9340324 -1.8957207
0.0108452765 0.56301993 -0.64380765 -0.63308656 -0.19203396 -2.158533 -1.6217611 -1.4330511
-1.269406 -0.9238953 2.3371534 0.75031286 -0.6377079 -0.6370582 -1.6013347 0.9949155
-0.7909697 0.46206966 0.73251086 1.0422047 -0.50616735 0.41515946 -0.018539444 -0.7793529
0.15113962 0.04707697 0.9816763 -1.0825797 0.65514743 1.5764118 -1.0426127 -0.5086245
1.9463459 -0.44548368 -1.1417127 0.7126208 0.07907692 -0.5196348 -0.7216477 -0.47678003

weight_ih_l0 f4 [256, 50]
00000000: 9190 b6bd e1e6 cd3d a6f5 96bd a8ea acbc
00000010: 17cc 283d 56be b13b 1d02 f93c 71b5 a63d
00000020: 3a6c 7abc 4622 bd3d 95fa 8d3c 0aa4 513d
00000030: 43a2 65bd d3bb b13d f28b 9cbd 076a 08be
00000040: c598 2bbd 583e 013e b1c5 cabd aba6 5cbc
00000050: 10a9 9bbc 4e40 d2bd 3eca 983a bd1c adbd
00000060: ab71 12bd fc9c dcbd d8b3 e7bd c257 06bd
00000070: 9cf4 c93d 88d2 82bd 40cb 61bd cf8f 823d
00000080: b1b5 bebb fec8 a9bd a369 a83d 4038 16bd
00000090: cec2 563d 8d9f a3bd efbe c13d 3219 eb3d
000000a0: 4a93 68bd 8624 b83c 3806 b9bd 6150 9cbc
000000b0: 42f8 95bc 04cd c3bd 8b91 b53d 4d5b 7e3d
000000c0: 082d ecba 33d0 bcbd b661 b3bd e597 73bd
000000d0: 2d78 c2bd 67d1 9dbd a211 f03d eba8 cb3d
000000e0: aa12 3d3d 8a72 cc3b f83b cc3d bd8e bbbd
000000f0: 6339 8c3d e873 c3bc 9960 6e3d 718d bebb
00000100: a1c2 113d 3918 dc3c 4ff8 a3bd 3b31 a53c
00000110: 3b5f 14bd 1f56 cbbd 4982 e3bd 30ac 0a3d
00000120: f49a fdbc 4050 f3bd 553a f1bd f5c7 5dbd
00000130: bb2c 02bd 6a2a 73bd fc8c ef3c 100e 313c
00000140: 824b 75bd 4a30 1abd d3a1 37bd 155a ce3d
00000150: 4458 5d3d 81dd 1c3d 1f71 fc3d 86e5 473d
00000160: 281a 223d 202b 813d 5dcb 0dbd 4cfa c03d
00000170: c2b4 2dbb 0462 853d 1b1e 20bc 16e9 6abd
00000180: 55c3 533d 6252 603d 8a34 273d d963 1cbd
00000190: ecfc 073e 4b6e a0bc 214b 7dbd 78d1 02bd
000001a0: 9511 393d 4690 52bc 3574 88bd 50b3 bcbd
000001b0: a770 cc3d eb3b 05be 4000 233c f3f6 cbbd
000001c0: 391c 8d3d 409c 023d 2328 64bd a0b9 733d
000001d0: 0a6a 82bc 7396 6d3d 6217 893c 0aca 6d3c
000001e0: dcf9 bfbd f1f8 8d3d 27ea c2bd a335 5b3d
000001f0: adb3 c33d 0243 b53c 3689 6ebc 4bdb cfbd
00000200: 6b2a 4c3d e75b b83c ff83 13bd 6a80 323d
00000210: 0d0c d33c edff 6f3d db18 d5bc e60f 0cbd
00000220: 5645 303d 2d78 2c3d 5a76 6a3d e44f bf3d
00000230: b44b 9cbd 0224 013d 3672 133d 5e30 c0bc
00000240: f1a7 87bd 0bcf 573d 745e babb ea8a 883c
00000250: dc0c c13d d35e a43b 42c0 f0bd 72da 9b3d
00000260: e265 cabd 7822 e93d 6bf1 4b3c c5e4 15bd
00000270: 72b7 433d 9d1f 053d 5181 66bc 6dce b1bd
00000280: b083 f4bd 0b18 01bd d4fe f8bd c6b8 c9bc
00000290: e847 46bd c55e d8bd 5bac b0bc 073b edbd
000002a0: 4418 243b cf67 f93a a675 d53c 74b9 123d
000002b0: aece 24bc 1382 f33c 1698 76bd 8c9e 1b3d
000002c0: 748c 933b e797 fe3d 3270 053d 3ad6 8d3d
000002d0: 2a20 8dbd 7928 6d3d 0b86 fe3b 8185 ac3d
000002e0: 0685 ae3d 58bb 70bc 6983 9a3d 667a 95bd
000002f0: 292a 4ebd dbdf 613c 637b ee3d 21e0 713d
00000300: b0df d7bd d609 a1bd 5477 343b 686a 73bb
00000310: 64ad a9bc b09a d73c 1b02 cd3d 30cd 43bd
00000320: 725d 063e 310c d5bd 2b36 a33d 04ef 383d
00000330: 394a 9b3c b7bd da3d dc74 e93d 3a75 a93d
00000340: de57 b03c 9c2d 30bd b72f bc3d ba3e 99bd
00000350: 79a1 76bd 3271 c9bd b77e eb3d 636a bb3d
00000360: b959 60bd f81e c8bd 4a47 acbd 1961 a73d
00000370: f435 a5bd fa41 d9bd 0975 d93c 81f0 d23d
00000380: 80a6 563d b292 efbd eade 8abd 0307 453d
00000390: be79 f6bb 67c6 373a a735 ce3d 2b5c 7dbd
000003a0: e66e a53d 6a05 943b 69b4 da3d 2c13 c2bb
000003b0: 7574 bb3c 07bd 913d 1aec ac3d 8ea6 9fbd
000003c0: 8343 54bd bd40 65bd cfe4 0fbe 515a b7bd
000003d0: b68a 0f3e f200 0bbd 0095 06bb 2417 e93b
000003e0: 2101 563c 712f 743c b831 08bd d7fb c03d
000003f0: 90cf c43d f7e0 7b3d 2da4 bd3d 2ceb 9b3d
-0.089142926 0.10053802 -0.073710725 -0.021107987 0.04121026 0.005424301 0.030396516 0.08140076
-0.015284592 0.09235053 0.0173314 0.05118183 -0.056062948 0.08678403 -0.0764388 -0.13321696
-0.04189374 0.12621439 -0.09900988 -0.013467471 -0.019001514 -0.102661714 0.0011656953 -0.08452747
-0.035752933 -0.1077213 -0.11313599 -0.032798536 0.09861109 -0.06387812 -0.055125475 0.063750856
-0.005819999 -0.08290289 0.082232736 -0.036674738 0.052431874 -0.07989416 0.09460246 0.11479415
-0.05678109 0.022478353 -0.09034389 -0.019081296 -0.018306855 -0.09560588 0.08865651 0.06209879
-0.0018018791 -0.09219398 -0.08758871 -0.05947103 -0.09495578 -0.07705956 0.11722113 0.09944328
0.046160378 0.00623924 0.09972376 -0.091580845 0.06846883 -0.02385898 0.05819759 -0.005815201
0.035586003 0.026867019 -0.080063455 0.020165076 -0.03622363 -0.09928536 -0.11108834 0.033855617
-0.030957676 -0.11880541 -0.11778704 -0.054145772 -0.03178094 -0.05936662 0.029242031 0.010806575
-0.059886463 -0.03764371 -0.044832062 0.100757755 0.054039255 0.03829718 0.12326264 0.048802875
0.039575726 0.063070536 -0.03461777 0.0942274 -0.0026505445 0.065128356 -0.009772803 -0.057351194
0.051699955 0.054766066 0.04082159 -0.03818116 0.13280076 -0.019583842 -0.061839227 -0.031938046
0.045182783 -0.01285178 -0.0666279 -0.09213889 0.09982424 -0.13011138 0.00994879 -0.09959211
0.06890149 0.031887293 -0.05570234 0.059503198 -0.015919704 0.058004808 0.016734783 0.014513502
-0.09373829 0.069322474 -0.09517317 0.05351795 0.09555755 0.022126678 -0.014559081 -0.10149249
0.04984514 0.02250476 -0.036014553 0.043579496 0.025762582 0.05859368 -0.026012829 -0.03419485
0.043034874 0.042106796 0.057241775 0.0934141 -0.07631627 0.03152848 0.035997592 -0.023460563
-0.06623829 0.052687686 -0.005687529 0.016667802 0.09426281 0.0050161867 -0.1175542 0.076100245
-0.09882714 0.113835275 0.012447695 -0.036595125 0.04778237 0.032500852 -0.014068917 -0.08681951
-0.1193918 -0.03151707 -0.121579796 -0.02462424 -0.04840842 -0.10564951 -0.02156656 -0.11583524
0.0025038878 0.001902813 0.026057076 0.035821393 -0.010059042 0.02972511 -0.060203634 0.037993
0.0045028273 0.12431317 0.0325777 0.06925626 -0.068909004 0.057899926 0.007767444 0.08423901
0.08521466 -0.014693104 0.07544596 -0.07298736 -0.050333176 0.013786281 0.11644628 0.059051637
-0.10540712 -0.07863204 0.0027536945 -0.003714228 -0.020712562 0.026318878 0.10010167 -0.047803104
0.13121584 -0.10402716 0.07969316 0.045149818 0.01895629 0.106807165 0.11399242 0.08274312
0.021526273 -0.043012246 0.091887884 -0.07482667 -0.060212586 -0.098360434 0.11498778 0.09151151
-0.054773066 -0.09771532 -0.08412035 0.08172817 -0.08066931 -0.10608287 0.026545065 0.10299779
0.05240488 -0.11697902 -0.06780799 0.04810239 -0.007521837 0.000701046 0.10068827 -0.061855476
0.08077793 0.004517247 0.10678942 -0.0059226956 0.02288268 0.07116132 0.0844347 -0.0779544
-0.051822197 -0.055969942 -0.14052127 -0.08952773 0.14017758 -0.03393645 -0.0020535588 0.0071133543
0.013061793 0.014903889 -0.03325054 0.09423035 0.09609902 0.06149384 0.0925983 0.07613215

weight_hh_l0 f4 [256, 64]
00000000: 7568 b639 631b 87bc bcff 0f3d da01 e93d
00000010: 4ec4 b4bd 56f7 ed3d 2611 af3d 4178 86bd
00000020: ae4b e93d b1be 9dbd d623 c13d 8b11 9bbd
00000030: 73be 5a3d 2679 583d bb9b 3a3d 1a66 99bb
00000040: dbad 62bd b435 c1bd b9d6 7b3d f44d b9bd
00000050: 2ed0 eabd b887 c23d 6f8e 053d 440c 823d
00000060: 50ac b6bd 78c4 d63d eebf 423d 6513 9ebd
00000070: d6ab bf3d 2cd3 e5bd f2dd bc3d fc93 babd
00000080: cdfd 38bd 1d51 a93c fc61 c03d 5b3c afba
00000090: d2f7 513d 9b32 043d 5e4d f2bd d98d 24bc
000000a0: 5a78 11bd 458c bd3d ef7f a1bd c8ac c3bd
000000b0: ee69 d5bd 8514 ef3c a64c d8bd e986 9b3d
000000c0: cead bebd 036d fbbd 1e32 ae3d 39b3 873d
000000d0: e6c3 b2bd 5085 893d 144e fb3d 24b3 06be
000000e0: 438c 003e c924 03bb 479d 9abd c7cf 543c
000000f0: c9c8 8abd 81df 62bd 03b5 c23c 009c 4ebd
00000100: 8123 f5bd 471a e7bc 3d1c f03d 1ef7 b23d
00000110: ffc7 413d 605c 603d f6cd 4239 5fbb 0c3d
00000120: c1db 88bd 1f09 65bd ec72 06bd 111e 16bd
00000130: 8dbb 2a3d 52d5 d33a c51c 193c 1d2f 953d
00000140: d993 553a 154e 37bd a33c b93d 662e bcbd
00000150: 2ef0 0cbd 7d72 e4bd 1892 373c d32e 583d
00000160: 2908 19bd 6906 893d 5e8e b0bc dba7 9fbd
00000170: 0877 0bbc f1ac b63d f28e 2bbd 5cbc 103c
00000180: 8991 cfbc 2193 12bd eccf 603d 68d1 a03c
00000190: 9e4f 733a 33ad 30bc 842b 61bc b449 cbbd
000001a0: a10c 553b 9bfe 01bd 040d c63c d038 3abd
000001b0: bf66 543d 3420 a83d 8709 f6bd 3f95 a5bd
000001c0: 7237 1cbd 769d 98bd ff99 e8bd 33de 94bd
000001d0: da27 67bd 970b 873d e6a2 c0bd f193 a9bd
000001e0: 5771 ef3d f5b5 fb3d 69da 4dbd e740 093d
000001f0: 3065 76bd d33d 9abc ba58 e1bd 5123 1a3d
00000200: 45ce 253d cc70 c13c 028a 993d d06e e03d
00000210: 28b6 e73d cf70 fe3d ddc5 103e 32ec 9e3d
00000220: eb15 dfbc 61bf cd3b 3829 2abd d071 b13d
00000230: dfc4 233c 627b 3d3d f4f9 e2ba bd4f 173d
00000240: 37c3 d4bc 2b88 88bb f431 123b dc76 a03d
00000250: db7a 8f3d a836 36bd 5965 0e3e 152e 70bd
00000260: 7275 ccbd d06f 42bd e0ee aabd 65bb 563d
00000270: 6423 43bd 1804 50bd 84ac 063e 0bd7 833d
00000280: 3b49 cebd b069 0ebe 1a62 cdbd dfa7 eebd
00000290: 5f9c acbc f591 893d 6e0b acbc b88e f83d
000002a0: 0ffc 913c 5dc6 bebd 793d 03be 2b5d dbbd
000002b0: b683 f9bd 3b45 853d 1f52 a93d e3f9 ecbc
000002c0: b2c7 e6bd 81bd 923c 843f f8bd 9f6a d3bd
000002d0: 62e3 d83d 2c0f adbc 96f2 3b3c 6f8d b3bd
000002e0: e7b5 a7bd e0f9 7fbc 27da a43c 2ee9 843d
000002f0: 4d69 2b3d 9df2 8b3d a135 a7bd 5b87 3ebc
00000300: 149d d5bd e7dc a83b ff88 fd3b a4c7 05bd
00000310: 5410 8abd 00df 343c eed1 cc3c d281 cdbd
00000320: c850 d63d a79c dbbd 833c c03c 45c3 ab3d
00000330: b6a9 84bc 5529 553d 4bf7 27bc 7f95 09bc
00000340: ac5e adbd b142 ad3d 446d e0bd b125 0dbd
00000350: 83e6 ff3c 7ed5 e33c fc57 b33d c87c 48bd
00000360: 7164 54bc c7cf d03d 553c 313c 6999 89bd
00000370: 8ece 1fbd edca 903d a8f1 6a3d 9e06 543d
00000380: 2a54 013d 3f25 85bd 3d44 79bc b6c0 acbc
00000390: 2d91 c1bd cf2c acbd 1f60 493d 415f 49bb
000003a0: 2f65 b2bd c211 92bd 8566 86bd c921 073d
000003b0: db87 1b3d 66d2 a4bd 87d8 bfbd 5a6d 06be
000003c0: 0acc b13c 06a8 92bd d0f7 853d 1f68 f33d
000003d0: 48f1 903d 8b30 c33c da00 9dbc 2e2b b8bd
000003e0: aa0a 833d 403e debd 1bc2 57bd a0e9 d03c
000003f0: 6782 a9bd 9996 52bd 238d 943d fd0f c43c
0.00034791572 -0.016492551 0.035155997 0.11377306 -0.08826505 0.11619441 0.08548193 -0.06565905
0.11391388 -0.07702387 0.09430663 -0.075717054 0.053404283 0.05284991 0.045558672 -0.004681361
-0.055341583 -0.09434071 0.061484072 -0.090480715 -0.114654884 0.094985425 0.03260654 0.06349996
-0.08919585 0.10486692 0.04754632 -0.07718543 0.09358947 -0.112219185 0.0922202 -0.09110257
-0.04516392 0.02066856 0.09393689 -0.0013369428 0.05126173 0.032274824 -0.11831163 -0.010043585
-0.035515167 0.0925527 -0.078857295 -0.0955444 -0.10420595 0.02918459 -0.105614945 0.075940914
-0.09310494 -0.12276652 0.08505653 0.06625981 -0.08728771 0.067148805 0.122707516 -0.13154274
0.12553506 -0.002001094 -0.075495295 0.012988991 -0.06776578 -0.05538893 0.023767954 -0.050441742
-0.119696625 -0.028210772 0.11724136 0.0873854 0.04730987 0.054775596 0.00018578008 0.03435838
-0.0668254 -0.0559169 -0.03282444 -0.036649767 0.04168277 0.0016161597 0.009345238 0.07284377
0.0008147336 -0.0447522 0.09044769 -0.09188537 -0.03440874 -0.111546494 0.011204265 0.05277903
-0.037361298 0.06690676 -0.021552261 -0.07795688 -0.008512266 0.08919705 -0.04188437 0.008833971
-0.025337951 -0.035784844 0.05488579 0.019631103 0.0009281578 -0.010783481 -0.013743285 -0.09926167
0.0032508748 -0.03173695 0.024176128 -0.045464337 0.0518558 0.08209267 -0.12013536 -0.08085107
-0.038138814 -0.07451908 -0.113574974 -0.07268944 -0.05643449 0.065940075 -0.094060704 -0.08280171
0.1169154 0.12290565 -0.05025712 0.03350916 -0.060155094 -0.018828308 -0.110032514 0.037631337
0.040479917 0.023613356 0.07497026 0.10958636 0.113140404 0.1242386 0.14137979 0.077598944
-0.027232131 0.0062789177 -0.041543216 0.08664286 0.009995668 0.046260245 -0.0017316923 0.03694128
-0.025971992 -0.004166623 0.0022307606 0.078351706 0.07005855 -0.044485718 0.13905849 -0.058637697
-0.099833384 -0.047469914 -0.08346343 0.052424807 -0.047641173 -0.050785154 0.13151747 0.064375006
-0.10072561 -0.13907504 -0.10028477 -0.116531126 -0.021070657 0.06717292 -0.021001544 0.121365964
0.017820386 -0.093151785 -0.12816419 -0.1071113 -0.12183325 0.06507345 0.082676165 -0.028927749
-0.112685576 0.017912628 -0.1212149 -0.10323071 0.10590245 -0.021125399 0.011471411 -0.08767211
-0.08188992 -0.01562354 0.020123554 0.06489788 0.04184847 0.06833384 -0.08164526 -0.011628951
-0.10430351 0.0051532867 0.0077372785 -0.032661095 -0.067413956 0.0110394955 0.025002446 -0.10034527
0.104646266 -0.107232384 0.023466354 0.08386854 -0.016194206 0.05204137 -0.01025183 -0.008397459
-0.08465323 0.08459986 -0.10958341 -0.034459773 0.031237846 0.027811762 0.08757016 -0.048947126
-0.0129634 0.101958804 0.010817607 -0.06718714 -0.039015345 0.07069955 0.057359368 0.051764123
0.031574406 -0.06501245 -0.015214023 -0.021087985 -0.09451518 -0.08406984 0.049163934 -0.0030726942
-0.087107055 -0.07132293 -0.06562523 0.032991204 0.03797136 -0.08047943 -0.09367471 -0.13127652
0.021703739 -0.07160954 0.06541407 0.11885094 0.07077271 0.023826858 -0.019165445 -0.08992611
0.063985184 -0.10851717 -0.052675348 0.025502026 -0.082768254 -0.051413152 0.07253482 0.023933405

bias_ih_l0 f4 [256]
00000000: 16ea dbbd 4ff1 e43c 0007 9e3d b768 eabd
00000010: b671 983c 9c26 d43d 27ad b3bd 8b4d 293d
00000020: 5600 dcbd 8789 07bd a9bf 95bd 12a6 97bd
00000030: fe06 c33d bbaf 1a3d 9536 7c3d 08bd ab3d
00000040: e444 2dbd 9b6c 003e 12ca b33d ea66 acbd
00000050: e0fc be3d e804 d3bd 2b8b 65bc 71bc 963d
00000060: ff71 4cbd 012c bf3d 3bdb d5bd 3579 a43d
00000070: 27a4 cc3c 7cdc 4bbd b181 613d 8e63 2d3d
00000080: 5297 d7b9 39bb 483a 7f54 dd3d 6801 ad3c
00000090: 37a4 e73d b838 0abd 4c2c a7bd 6df3 0a3c
000000a0: 481e 83bd 530e 9f3d a1d7 ca3d ccae 743d
000000b0: 61ae b13d f310 46bd 3e55 0f3d c01c e9bd
000000c0: 7570 13ba 9e53 a7bc a31f 4e3d cd83 9cbd
000000d0: e83c 7bbc c930 323d b438 573d 4e09 863d
000000e0: e846 8bbd 5df7 e5bd 5088 7fbd 9377 c83d
000000f0: a98a c53d 0a71 73bd 43b5 b4bd 64dd 8cbd
00000100: 4980 093e d7bc d3bc 3b52 37bd 3510 1c3d
00000110: db9b b63c bbbe a9bd c795 bc3d 758e fb3d
00000120: a9a0 45bd 7b8a 02bd 384b d1bd d79c dabd
00000130: 2df6 a33c 0846 3b3c d1a8 abbd 0dac 853d
00000140: bec0 87bd 8037 bcbd 2e14 013d 3c52 be39
00000150: 3934 c13c 3a2d f6bd f095 b1bd ca2d af3c
00000160: 6b1b f03d f3b1 c4bd 2aa4 f6bc 7190 fe3d
00000170: 2117 70bd d52c ccbd 2044 8dbc 5b4d a63d
00000180: 789f a73d 6f91 c23d cc17 e63d aec5 3b3b
00000190: bbb1 983d bb87 b4bd 27d6 b0bc 4f39 d93d
000001a0: 4e5c 093e d950 2d3c c84c 76bd f7d8 2f3d
000001b0: 9f0a 363d ff65 093d 2ae1 033e 0d4c 8abd
000001c0: b2fd 893d ce96 d0bd 295a 83bd 7737 353c
000001d0: 8ea2 c6bc 8102 e9bd 947b acbd b761 dbbd
000001e0: 1c38 933c d09e 25bd 1e56 babd 211b ecba
000001f0: a473 af3d c7e2 b5bd 6c45 113d f134 aabb
00000200: 3251 1a3d 4a71 34bd 8c23 fd3d ad3f 4b3d
00000210: 7a8c d7bc 08fc 43bd 9ad6 6f3d 20c6 08be
00000220: ff7a d23d 1ae5 06bd cd43 ad3c 54a9 d23d
00000230: ce06 8cbd f5f8 f93b 5528 20bd 9ae9 e4bd
00000240: 9b59 75bd 5467 403d ae46 d5bd 1f57 cebd
00000250: 951b 963d 7770 80bd cc41 90bd d541 493d
00000260: 564d 4abb 04e1 87bd 6e17 d5bd aa9f 85bd
00000270: 8e78 293c 21f8 14bc 237e de3d 7a7f 8f3d
00000280: 7dca 393d 1c5b e0bd 1a1c a23c 916c 99bd
00000290: 680a a2bd 57ac d3bd cc59 d43c 81e4 c9bd
000002a0: 9651 23bd 741d 0f3d e0e0 04be b56c 673d
000002b0: eac2 2e3d 0d5c 05be 62b4 063e 0e24 5cbc
000002c0: 99dc 3cbd 5e73 debd 505b 65bb a27d 33bd
000002d0: 8726 0ebe a519 b43d 2fe4 5abc 264c 95ba
000002e0: aaf3 83bc 47d5 7fbd bc20 81bc dcb1 9fbc
000002f0: 1ba4 843c d780 f03d 5640 9d3c 23aa 703d
00000300: 25b4 0c3e d4bf b6bd 1b20 3cbd 95cc b03c
00000310: 8acd 6b3d d59b a03d 785a febb 6134 923d
00000320: 8d7a 0e3d 9d01 a8bd 123e 72b9 c3fe 0b3e
00000330: 1415 3a3d c2e4 a03d 4439 373d 7bc0 803d
00000340: b70c 1ebd 713d cebc 64b8 e43d e0f5 92bd
00000350: 01ed 073e aa35 9b3d e1b4 f1bd fdf9 8f3d
00000360: a3c0 dd3c e2b8 853d 0363 053e da2c 6d3d
00000370: 88d0 f9bd 3595 e2bd dfe3 a23b 582c 1bbd
00000380: aee0 3d3d f635 f83c b675 13bd e073 d43d
00000390: 8189 913d 262e ad3d 85c1 73bd 9e09 f1bd
000003a0: 3cc6 9b3d 9fac b53d cdf5 893d 43e3 eb3c
000003b0: 74f9 67bc d903 903d 4dad 5b3d 70de 29bd
000003c0: 787e acbd 7f35 ddbd d309 05be 188c 45bd
000003d0: 8cc8 883d 856e 87bd b17b 6dbd eb9a ebbd
000003e0: db1a b8bb 1638 8c3d 1594 c0bd 8863 8b3d
000003f0: 3c0d 5637 c393 4c3d 7ba6 303d 65dd 0cbd
-0.10738008 0.027947096 0.07716179 -0.11445754 0.01860891 0.10358927 -0.087732606 0.041333716
-0.107422516 -0.03309014 -0.07311947 -0.07404722 0.09522818 0.037765246 0.06157549 0.08385664
-0.042302027 0.1254143 0.08778776 -0.08418067 0.09325576 -0.1030367 -0.014010231 0.07360161
-0.049913403 0.09334565 -0.104422055 0.08030931 0.024980618 -0.049770817 0.055055324 0.04233127
-0.00041120738 0.0007657293 0.10807132 0.021118835 0.11310618 -0.033745497 -0.08162746 0.008480889
-0.0640226 0.07766404 0.09904409 0.05973701 0.08675838 -0.048356008 0.034993403 -0.11382437
-0.00056243624 -0.020425614 0.05032314 -0.076423265 -0.015334345 0.043503556 0.05254431 0.065447435
-0.06800634 -0.112288214 -0.062385857 0.09788432 0.09645588 -0.059433974 -0.088236354 -0.068781644
0.13427843 -0.025846882 -0.044756155 0.038101394 0.022291115 -0.08288332 0.09208255 0.12283031
-0.04824892 -0.031870347 -0.10219425 -0.10674446 0.020014847 0.011430271 -0.083818085 0.06526957
-0.066285595 -0.09190273 0.031513385 0.00036300893 0.023584472 -0.12020345 -0.086711764 0.021384139
0.117239796 -0.096042536 -0.030107576 0.12429894 -0.058615807 -0.099694885 -0.017244399 0.08120223
0.08184713 0.095003955 0.11235008 0.0028651762 0.074557744 -0.08814951 -0.02158649 0.10606634
0.13414118 0.010578358 -0.060131818 0.042931523 0.044443723 0.033544537 0.12878862 -0.06752787
0.06737842 -0.10185014 -0.06413681 0.011060587 -0.024247434 -0.11377431 -0.08422008 -0.10711997
0.017971091 -0.04043466 -0.09098457 -0.0018013456 0.085669786 -0.08881145 0.035466596 -0.0051942994
0.03767509 -0.044053353 0.12360296 0.049621273 -0.026312102 -0.047847778 0.05855427 -0.13356829
0.10277366 -0.032933332 0.021150494 0.10286203 -0.068372354 0.007628555 -0.039100964 -0.111773685
-0.059899908 0.04697354 -0.10413872 -0.10075211 0.073294796 -0.06271451 -0.070438 0.049135048
-0.003086885 -0.06634715 -0.104048595 -0.06524594 0.010343684 -0.009092362 0.108639024 0.07006736
0.045359123 -0.10954878 0.01978879 -0.074914105 -0.07912141 -0.103356056 0.025921725 -0.09858037
-0.03987273 0.034940198 -0.12976408 0.056500155 0.042666353 -0.13023396 0.13154748 -0.0134363305
-0.046108816 -0.10861848 -0.0034997053 -0.043820985 -0.13881885 0.08793954 -0.013360067 -0.0011390492
-0.016107399 -0.062459257 -0.01576268 -0.01949399 0.016191533 0.11743324 0.019195717 0.058756005
0.13740595 -0.08923307 -0.045929056 0.021581927 0.057569064 0.078422226 -0.0077622496 0.07138897
0.034784842 -0.08203433 -0.00023102041 0.13671403 0.045430258 0.07856132 0.044732347 0.06286713
-0.038586345 -0.025175782 0.11167982 -0.07175803 0.13274004 0.07578595 -0.11802078 0.07030103
0.027069395 0.06529404 0.13026051 0.057904102 -0.12197977 -0.11063615 0.004971012 -0.037884086
0.04635685 0.030299168 -0.03600093 0.10373664 0.07106305 0.08456068 -0.059510726 -0.117694125
0.076061696 0.088708155 0.06736336 0.02879489 -0.014158595 0.07031984 0.05363207 -0.0414719
-0.084225595 -0.10801219 -0.12992029 -0.048229307 0.06678876 -0.06612877 -0.05797929 -0.11504158
-0.005618436 0.06846635 -0.094032444 0.068060935 1.2758475e-05 0.049945604 0.04312752 -0.034390826

bias_hh_l0 f4 [256]
00000000: 052b 4ebd 2e29 a73d 4357 cabd cf83 cfbd
00000010: bf86 a5bd 80bc c93d 10fa 993d 9d8c eebc
00000020: 02b2 96bd 5967 afbd 6bc8 a93d eade 093e
00000030: 3199 403d ce71 85ba 1993 b7bd 43d7 23bd
00000040: d52c 24bc 44eb 023e 08af aa3d 61b7 11bd
00000050: c7a1 963d c864 ebbd 4748 e3bd 170e c0bd
00000060: 1406 80bd 4024 e63c 0bdd ab3d 2708 9f3d
00000070: b69b 42bd 689a 4ebd 4b27 aebd 0e0f 54bd
00000080: 56a9 38bd 43b6 4f3d fd67 673b b02f e7bc
00000090: 1fba a63c c84a 423d 248e 813d 1ff2 00be
000000a0: 94d0 8ebd 5d89 e23d e3a6 b2bd f373 ecbd
000000b0: a26a 013e 062a 79bd 4408 493d 3628 933d
000000c0: 9c75 313d b4aa adbd b91a 4abc 3f7d 0e3c
000000d0: 7fc1 09bd ea57 a53d df7f b8bd da51 83bd
000000e0: f439 5f3d ade8 ae3d 77d3 2a3c e107 cf3d
000000f0: f3e2 e4bc 76d0 aabd fb7b 00bd ac8a 74bd
00000100: 4285 33bd 8395 6b3d 398b febb 25b7 adbd
00000110: 90fa e93d d1f7 91bc 0ab5 e2bc ef2a 37bd
00000120: f34a 0ebb 7726 03be 8dfb 8e3d 5902 183c
00000130: 13ec 87bd 33d0 653d 5f34 ba3a c5ff 5d3d
00000140: 4ad4 d33d 894c 3ebd d697 da3d 82cc cf3d
00000150: 0f06 b0bd 15be 353d 8644 c8bd 5269 593d
00000160: ff58 c73c 55d7 f3bc 2a4a 4bbd 4b93 dabd
00000170: 1e13 dc3d 9bb1 3d3d 88ef 8abd 799b 01be
00000180: 7c93 ae3d 29a6 8f3d e6e6 ee3d 22d1 80bd
00000190: 5516 f93d 6f91 943d 7fef c9bd 7f99 ad3d
000001a0: af1d c03d ccb7 d2bc 6f80 ec3c 3aac e23d
000001b0: dfc2 e83c b9c4 023e 63bc b03c 1c31 d5bd
000001c0: e949 afbd 2c39 8d3d 063b cfbd e44b 6a3d
000001d0: 5bf1 cdbd 2914 e2bd 02a6 88bd 3bca f3bd
000001e0: 963b ec3d dbb6 a83d 4f25 aebb 32cf 24bd
000001f0: 54f7 3c3d 9017 fbbc e018 b6bd 7b5b 0c3d
00000200: ddcf 96bd 7927 ac3c 2c0f b83c 56fd e6bd
00000210: 6bdd d1bd d525 d6bc 685e 40bb d465 e13d
00000220: 0f68 f63c d13c b3bd b180 5dbd da57 db3c
00000230: 5dcd 2bbd 33c3 babd 7b93 4b3d 55d9 cebc
00000240: 3ec5 82bd 2744 04be 4855 49bd 0762 bebd
00000250: e5ed 9fbd 4b0f 903d ac35 29bd 49ca d53d
00000260: 5523 55bb 1b45 3e3d c8ee 8dbc 98e1 973d
00000270: 6838 1eb9 c7eb 3d3d 909f 0abd 4635 43bd
00000280: 6911 fdbd a436 dbbd ae07 d2bd 8b26 343a
00000290: 954d aabc a58c b3bd 7ca5 a73d f91c b23d
000002a0: 6d32 d53d 5d06 053c 4a65 04be 9e46 90bd
000002b0: 76d0 763d d2fa 28bd e6bd 40bd bfc1 30bc
000002c0: 11d0 57bd dee8 e03d ae52 81bd 7e93 32bd
000002d0: 393d bd3d d7b0 96bd e827 753d 5a43 7dbd
000002e0: 6009 4b3c ac4e 86bc 95b6 ea3b 18a3 c1bd
000002f0: 861b 13bc a76d b63d 1186 8dbc 7de8 a43d
00000300: 7a71 fabc 25c2 663d 86be 34bd d9fe ed3d
00000310: d674 07bc f3e6 2e3b 7ce6 ee3d 2fd4 97bd
00000320: 3bcc b43c a774 c63d e409 ec3d f17e a9bd
00000330: 2a38 e23d 3a1d a9bd 4980 45bc e490 9f3d
00000340: 5079 c83d b033 9cbd 34fd b4bd b909 613d
00000350: cdeb 10b7 8eb2 b13d a923 9b3d 4b9c b13d
00000360: 3df0 95bd 6593 b4bd 51e9 333d 918d dbbc
00000370: 36da d23d 9e8c 013e 9f88 0dbd c80c d43c
00000380: decf d33d 9200 ba3d 30d6 5ebd 3ef7 ec3c
00000390: af6c a23d f8d7 d0bd cbd8 943d 3015 c33d
000003a0: 307b 043e bde1 62bc fdaa 41bc e3ac 6bbd
000003b0: 8500 04b9 1d06 54bd df03 923d ecfb c0bd
000003c0: 16ae 4d3c aa8a 5b3d 973f f2bc fdaa b6bc
000003d0: 51f8 0cbd 3007 983c 5983 a6bd bb05 a3bd
000003e0: c143 36bd eaef cf3d 93e5 a33d 2793 423d
000003f0: 2d69 92bd e40f a8bd c93a 41bd fed4 7abd
-0.050333995 0.08162151 -0.09879925 -0.10132562 -0.080823414 0.09850407 0.07518399 -0.029119784
-0.07358171 -0.08564634 0.0829018 0.13463941 0.047021095 -0.0010181011 -0.089636035 -0.04000021
-0.010020454 0.12785059 0.08334166 -0.035575274 0.07355075 -0.11493832 -0.1109777 -0.093776874
-0.06251159 0.028093457 0.0839177 0.07765227 -0.04751178 -0.050440222 -0.08503588 -0.05177217
-0.045083366 0.050710928 0.0035309785 -0.028220981 0.020352421 0.0474346 0.06325939 -0.12592362
-0.06973377 0.11061356 -0.08723237 -0.11545553 0.12638333 -0.060831092 0.04908015 0.07185404
0.04332505 -0.08479825 -0.012335473 0.008696853 -0.033631798 0.08073409 -0.090087645 -0.06412096
0.054498628 0.08540473 0.010426394 0.10108925 -0.02794025 -0.08340542 -0.031368237 -0.05970256
-0.043828256 0.057515632 -0.0077680615 -0.08482198 0.11424744 -0.017818363 -0.027674217 -0.04471868
-0.0021712154 -0.12807642 0.06981573 0.0092779035 -0.066368245 0.056106757 0.0014206282 0.054199
0.10343225 -0.04645971 0.10673492 0.10146429 -0.085949056 0.04437073 -0.09778695 0.053078957
0.024334429 -0.029765764 -0.049631275 -0.10672625 0.10745834 0.046311956 -0.06783968 -0.12656964
0.08524224 0.070141144 0.11665134 -0.06289889 0.121624626 0.07254302 -0.098601334 0.08476543
0.09380662 -0.025722407 0.028869836 0.11068006 0.028413234 0.12770356 0.021574205 -0.104097575
-0.08559019 0.0689567 -0.1011868 0.05720128 -0.100558005 -0.110390015 -0.066722885 -0.11903807
0.115348026 0.08238002 -0.005314506 -0.04023666 0.046134308 -0.030650884 -0.08891463 0.03426693
-0.073638655 0.021014916 0.022468172 -0.11278789 -0.1024731 -0.026141087 -0.0029353146 0.1100575
0.030078916 -0.08751834 -0.054077808 0.02677529 -0.041943897 -0.091192625 0.049701195 -0.025250116
-0.06385277 -0.12916623 -0.049153596 -0.09296041 -0.07809047 0.07034167 -0.04131095 0.104389735
-0.003252228 0.046452623 -0.017325774 0.074160755 -0.00015089067 0.046367433 -0.033843577 -0.047658227
-0.12356836 -0.10703781 -0.10255371 0.00068721984 -0.020788947 -0.0876706 0.081858605 0.08696932
0.104100086 0.008119193 -0.12929264 -0.07044719 0.060257398 -0.041254826 -0.0470561 -0.01078838
-0.052688662 0.10981916 -0.06314598 -0.04359769 0.09240193 -0.07357948 0.05985251 -0.06183181
0.012392372 -0.016394936 0.0071628788 -0.09454936 -0.00897873 0.08907633 -0.017275842 0.08052156
-0.030571688 0.056337494 -0.04412701 0.11620874 -0.008267602 0.002668795 0.11665055 -0.07413518
0.02207004 0.096902184 0.11525324 -0.08276165 0.11045869 -0.08257528 -0.012054511 0.077913076
0.097887635 -0.07627046 -0.08837357 0.054940913 -8.6379705e-06 0.08676635 0.07575161 0.08672389
-0.073212124 -0.08817176 0.04392368 -0.026800903 0.10295527 0.12651297 -0.03455412 0.025885
0.10342382 0.0908214 -0.054403484 0.028926488 0.07930886 -0.10197443 0.072679125 0.095255256
0.12937617 -0.0138477655 -0.011820552 -0.057537924 -0.00012588695 -0.051763643 0.071296446 -0.0942305
0.012553712 0.053599037 -0.029571338 -0.02229833 -0.0344165 0.018558115 -0.08130521 -0.079600774
-0.04449821 0.10153182 0.08002772 0.047503617 -0.07148967 -0.08206156 -0.047175203 -0.06123828

weight_ih_l0_reverse f4 [256, 50]
00000000: ab2a 1abe 374a 7fbc 865e 733d ad11 d43d
00000010: 14c0 0dbe 5f95 123e b450 9c3d 5d26 8f3d
00000020: 57af c73c 34b7 2cbc dd70 dabd 9217 5fbd
00000030: 0b65 40bd 9179 cf3d 14d8 6f3d 0dd9 64bd
00000040: ac46 863c ff71 253c 031d 91bd 740b 1d3d
00000050: 39f5 c13d 553b b83d 25e6 bc3c 898c e23c
00000060: cf48 ad3d 897f 633d fa95 3fbd 7af1 2b3d
00000070: 5401 223d 149a 453d 47dd 29bd 2147 b93c
00000080: 7298 3fbd 3971 cd3d aff2 bf3d 2e98 b5ba
00000090: c1f7 663c f47a ab3d 9fc5 fd3d 1525 013e
000000a0: 8db5 483d 8dbb 673c 42cc 02be 4c66 be3c
000000b0: 4b03 23bd 8ab9 2e3c 7933 5fbb cffc bfbd
000000c0: a596 913d d629 14bc c28f 84bc 962c 90bd
000000d0: 5ef6 bcbd 6d7c a23d 4bf1 1fbe 06f6 15bd
000000e0: d027 133e bfa4 6d3d 9ef4 c03d c293 5bb9
000000f0: e1cc 0b3e eb05 423d c328 d43d 2532 bcbd
00000100: f300 353c 7445 d23d 2f98 d13d 1925 0a3e
00000110: 1b14 0ebe da19 69bd 7135 1d3d 8fdd f93c
00000120: 9f8a 6f3d 3db4 20bd 8402 943d ec8d 4b3c
00000130: 9fc6 41bd a939 e33d be91 bf3d 40f7 98bc
00000140: b4cc 1f3d b272 eebc 1c44 1c3d d3f7 b63d
00000150: b1b0 21bd 514e c53d 8056 533d 9737 72bc
00000160: 30d5 c33d 0e9c 82bd fb36 e83a aefa a8bd
00000170: a65d 09bd 8130 be3d 64f2 943d b690 2f3d
00000180: cb5c d8bd b7a8 0cbd 3cee 0a3d 6722 4f3d
00000190: 4d09 b5bd 807b 043d f112 57bd 5b63 193d
000001a0: 5876 bdbd 95b5 3f3b 1bad 143d 3092 db3c
000001b0: 5be6 a2bd d5aa 25bc 280b 933c 9ccc 7cbd
000001c0: 6167 ab3d de59 9dbc f6de ebbd dad1 1e3d
000001d0: f20d 00be b72a 9cbd 4e4f 963d 493d d23d
000001e0: 770d 993d a186 fa3c 626e fbbd aa84 5fbd
000001f0: bd10 7f3d 179c 8b3d c8e8 913d 4cbb 98bd
00000200: 4356 f5bd 2b25 11be 4ef0 0a3e dcda 153e
00000210: b360 453d b64d a43a 7dce bf3d 0102 af3d
00000220: f5c8 8ebd 7dc1 5abd b3af 673d 1518 223c
00000230: ea9b 12be 0c15 6b3d 0eb1 0dbc 51ec a13d
00000240: 2943 0d3e 7e03 98bd 3253 f43b fabf 65bd
00000250: 2f5c 913d 2918 6e3c 5a8a 7b3d 745b 10bd
00000260: 9ff3 8dbc 99aa 043e 1ffb ba3d a295 133d
00000270: 28fa 89bd 7401 e4bd 8a05 61bd 5374 0e3e
00000280: 764a de3c a892 8f3d da89 76bb 1ff0 a8bc
00000290: de5f b7bd bcad 17be c489 a5bd 3fba d23a
000002a0: 0a57 f3bd 4ca9 863c 85b5 18be befe cbbd
000002b0: 2737 933d a9f5 033e 66f5 3d3d 7d40 09bd
000002c0: b21d c5bd 77a1 1a3d fdc4 10bd 1833 90bd
000002d0: b3df 463c 5256 2d3d fcd6 71bd 1490 aabd
000002e0: 58be eabb 7766 e7bd a545 db3d e71e 4b3d
000002f0: 4939 7f3c b738 093e 3161 e1bd 7c3e bc3d
00000300: c18e 1bbb 7db7 bfbc 3dbc d33d c53a 0cbd
00000310: dba1 813d 3ad1 94bd 4998 fe3b eca8 993d
00000320: 1cc6 04bd c3e5 0c3e b5dd 403d ac38 333d
00000330: b8f4 943d b05d 45bd 1fa3 cfbd b54d a73d
00000340: d16b 563d a6d9 ca3d 5da7 96bd 95e8 613d
00000350: f300 723d a3bd 19bc fa71 833d b9a4 213c
00000360: c898 0ebe 094a 0cbd 3796 81bd 3b03 0d3e
00000370: 0498 82bd 82a4 03be 604b bfbd ef81 6d3d
00000380: 239f f83c 743a 9bbd 9d99 043d 256c 8cbd
00000390: 4640 bd3d 2a55 1d3d 1db5 193b df49 e7bd
000003a0: aed5 febd c937 78bd 8e64 01be a085 943d
000003b0: 9ca7 84bc a1a0 973d 0d40 d63d 2940 003c
000003c0: 4c36 15be e241 883d 2469 3bbd 8c82 98bb
000003d0: 2e67 89bd e334 27be 8d33 073e 5e69 c9bd
000003e0: 25f1 44bc 8c69 ec3d 14b3 a0bd 3106 6f3d
000003f0: 2f33 9cbb 62e4 84bd 7cfd 613c 5237 e53d
-0.15055339 -0.015581659 0.059416316 0.10354934 -0.13842803 0.14314793 0.076325804 0.06989739
0.0243756 -0.010541726 -0.10666058 -0.054465838 -0.046971362 0.10130609 0.058555678 -0.05587106
0.01639112 0.01009798 -0.07085612 0.038341 0.09470601 0.08995692 0.02305896 0.027654903
0.08461153 0.05554155 -0.04677389 0.041978337 0.039552048 0.048242643 -0.041470792 0.022616925
-0.046776243 0.10031361 0.0937246 -0.0013854557 0.014097155 0.08373061 0.12391209 0.12611802
0.049001265 0.014143837 -0.1277323 0.023242138 -0.039798062 0.010664353 -0.003405778 -0.09374391
0.07108811 -0.009043178 -0.01618183 -0.07039754 -0.09226678 0.079338886 -0.1561939 -0.03661158
0.14370656 0.058018442 0.09421657 -0.00020940512 0.13652374 0.047368925 0.10359337 -0.09189252
0.01104759 0.102671534 0.10234105 0.13490714 -0.13874857 -0.05690942 0.038381044 0.030501155
0.05848181 -0.03923439 0.07227042 0.0124239735 -0.04730856 0.11094982 0.0935397 -0.018672585
0.03901358 -0.029107425 0.03815089 0.089339875 -0.039475147 0.09634078 0.051596165 -0.014783761
0.09562147 -0.06377421 0.0017716581 -0.08250938 -0.033536576 0.09286595 0.07272795 0.042862616
-0.10564574 -0.034340587 0.033918604 0.050569918 -0.088396646 0.03234434 -0.0525083 0.03744827
-0.09251088 0.0029252518 0.0362979 0.026803106 -0.07954093 -0.01011153 0.017949656 -0.06171857
0.08369327 -0.019207891 -0.11517136 0.03877435 -0.1250532 -0.07625335 0.07339345 0.102655955
0.07473271 0.030581774 -0.12276913 -0.054569878 0.062271822 0.06816881 0.071244776 -0.07457599
-0.11979344 -0.14174335 0.13568231 0.1463427 0.048187923 0.0012535367 0.093655564 0.08545304
-0.06971923 -0.05340718 0.056564044 0.009893437 -0.14317289 0.05739312 -0.00864817 0.07906402
0.13795151 -0.07422541 0.0074562067 -0.056091286 0.07097661 0.014532127 0.06141124 -0.035243466
-0.017328082 0.12955703 0.09129929 0.036031373 -0.06737167 -0.1113309 -0.054936923 0.13911562
0.027135115 0.07010394 -0.0037618787 -0.020622311 -0.08953832 -0.14812368 -0.08082917 0.0016077234
-0.11881836 0.016438149 -0.14912994 -0.099606976 0.07188254 0.1288668 0.04637661 -0.033508766
-0.096248046 0.03775164 -0.035344113 -0.07040995 0.012138295 0.04231865 -0.059042916 -0.08328262
-0.007163804 -0.112988405 0.10706643 0.049590018 0.015577623 0.13400541 -0.11004866 0.091916054
-0.002373621 -0.023402924 0.10338638 -0.034235734 0.063296996 -0.07266469 0.0077696186 0.075029224
-0.032415494 0.13759522 0.047086436 0.04375522 0.07273239 -0.04818505 -0.10138535 0.08169118
0.052348915 0.099047944 -0.07356141 0.055153448 0.059082936 -0.009383592 0.06418224 0.009865933
-0.13925469 -0.034250293 -0.06327479 0.13770764 -0.06376651 -0.12855724 -0.093405485 0.057985242
0.03034932 -0.075795084 0.03237306 -0.068565644 0.09240775 0.038411297 0.00234539 -0.11293387
-0.124431 -0.060600076 -0.12636015 0.072520494 -0.016193204 0.074036844 0.104614355 0.007827797
-0.14571494 0.06653191 -0.045754567 -0.0046542343 -0.06709133 -0.16328768 0.13203259 -0.0983455
-0.012020384 0.11543569 -0.078466564 0.058355514 -0.0047668437 -0.06488873 0.013793346 0.11192192

weight_hh_l0_reverse f4 [256, 64]
00000000: d986 adbc 0ada 603c 47f3 d7bd 82b3 e8bd
00000010: 7645 373d 7695 cf3d 087e 99bd dfe1 6d3d
00000020: 3eda 8f3d 654c 9abd a647 163c 2e40 1c3e
00000030: 58b5 f33a 2880 8b3d 5007 07bd 7d60 b23d
00000040: f7ec abbd 3d23 bcbd f3af 2fbd 85e5 0cbe
00000050: c645 19be 3b59 f4bd 1e3e aa3d 6984 f5bc
00000060: 4581 983d 67fa 4cbd 263e 783c b9d8 05be
00000070: fdcc 383d 3fd8 ebbc 9cf7 89bc a897 e9bd
00000080: 7e4d 6a3c bd4c 113d 7900 c3bd b0bd afbd
00000090: f820 2bbd 78a8 aabb 1eec d13c 04df c43c
000000a0: bd4d 92bd 8be6 83bc 7f65 953d e8d4 4bbd
000000b0: e6a1 a4bd 54f8 d6bd dabe cabd f1a8 773d
000000c0: 1894 00be e48e bb3d fde4 87bb dc91 8abd
000000d0: 53d3 b33d 9126 a43d d7c7 583d 1581 33bd
000000e0: 7beb bebd beb0 163e 63f3 1fbb 2198 a83d
000000f0: 783f 50bd e491 723d 23ce ac3d 9259 1bbd
00000100: fb6f 503d d804 12bd bcbe 82bd 6a2d 0cbe
00000110: 0a18 ea3c 468a 2fbd 4469 713d f261 b9bc
00000120: b831 9cbc 761e 913d f022 5e3c 3538 b3bb
00000130: e022 a63d 52e5 aa3d d0b9 c2bd c684 763d
00000140: 435c 833c cdb0 8e3c af21 bb3d 2473 ecbd
00000150: e83b 05be c4e8 c63d bf78 89bd 3254 f5bd
00000160: d150 af3d cc34 7fbd 4f9d da3d b76b 7a3d
00000170: 502d 4a3d c44b a8bd 0558 78bd bc1c 9a3d
00000180: a536 dabd 7d64 673d 03c0 83bd dc59 ebbc
00000190: 69fe 06be 048a c0bc b1a2 11bd fc3c 073d
000001a0: 3650 5fbd f5d0 313d 2bdd 4a3c 03f6 153e
000001b0: 79c5 2bbc b456 14be 4072 a5bd a971 043e
000001c0: 2032 8cbd a489 59bc b318 993b ad5f c5bd
000001d0: 22d2 ac3d 3acf d2bd 7231 febc f3b3 c1bd
000001e0: 4c54 863d f524 b9bd 4ca4 e3bc 7d80 583d
000001f0: d9ec a0bd f949 183e 092f bcbd e33f 8a3d
00000200: 511d ddbc aa90 85bd 034d b83d 6d30 8ebd
00000210: a7d0 0f3e 1020 bdbc 0859 e0bd 67b2 1fbe
00000220: 96ac 923d 5fc9 803d f059 2a3d e91e 97bd
00000230: e27d a73d a99b 9fbc 8b17 42bd fac8 ecbc
00000240: fc61 42bd b7eb f33d a86f ab3d ca65 e9bd
00000250: facc 13bd 628c d73c efa9 d83d 3504 4e3d
00000260: 43e9 e3bd ee0e 743d 4348 173e 0d35 83bd
00000270: 2073 aa3c 3232 d1bc 7c6d c7bd 4beb 50bd
00000280: 73b5 9cbd af2f e1ba 7795 9a3d 1109 adbd
00000290: 8722 8c3d 1f75 3a3d 8951 63bd 11d3 2bbd
000002a0: 5a07 cabb ba78 a9bd 239f 1ebd 4f7c 9cbd
000002b0: 36ba f9bc 8a48 e8bd 044e 81bb 8ee1 883d
000002c0: 82b7 13be cc63 b5bc 9076 113c 50b7 ebbb
000002d0: b929 4cbd e010 ad3c f210 0bbd 0631 cfbd
000002e0: 947b 19bd fafe 013e 21fb 9c3d 2ca1 eebd
000002f0: bb43 b6bd fdf8 dd3a e178 853d a433 9c3d
00000300: 1161 9d3b 3f32 0dbe d2f6 e03c 22c1 89bb
00000310: a654 1d3c 01b3 9fbd 8024 ac3d 8fbe 9a3d
00000320: f875 083b f82d 4c3d 422a 05be 7845 7f3c
00000330: 8153 cdbd 472f 4c3c 666e dbbd a744 083e
00000340: 107c 70bd d719 92bc 4c28 a8bd ec8b 013d
00000350: a8a2 f43b 0902 0fbd 6f13 cfba 080b 88bd
00000360: c4d9 afbd 4590 70bd dd6a 37bd de6e 82bd
00000370: d3d5 17be 0e1f 84bd 68cd 523d 86e6 c73c
00000380: 0265 75bd be61 de3c f88e b53c c62e 1dbc
00000390: 71f1 68bd 2d88 103c 8fcf debc 6be6 a7bd
000003a0: beb7 b3bd 8835 19bd ecb5 9dbd 90a1 5fbd
000003b0: db01 c5bd 15fe b23a 43eb d93d aaf1 1f3d
000003c0: 56dc 97bd 37ae c03d df56 3f3c 4dd1 8a3d
000003d0: edf5 19bd dfce e7bd 9599 113e f022 aa3d
000003e0: 9964 453d b8e3 dc3c edc0 033e 751c 5bbd
000003f0: 13e8 59bb ca4a 0e3d 55d2 8bbc 04b1 cfbd
-0.021182464 0.01372386 -0.10544448 -0.113623634 0.044743977 0.10135929 -0.07494742 0.058076736
0.07024048 -0.07534102 0.009172356 0.15258858 0.0018593473 0.06811553 -0.032965958 0.0870981
-0.08394807 -0.09186409 -0.042892408 -0.1375943 -0.14968023 -0.11931082 0.08312629 -0.029970365
0.07446531 -0.05004349 0.015151536 -0.13070954 0.045117367 -0.028789638 -0.016841702 -0.11405879
0.014300702 0.035473574 -0.095215745 -0.08581102 -0.04177949 -0.0052080713 0.025625285 0.024032123
-0.07143734 -0.016101142 0.072947495 -0.04976359 -0.08038692 -0.104965836 -0.09899683 0.06046385
-0.12556493 0.091581136 -0.0041471706 -0.06766102 0.08780541 0.080151685 0.052924957 -0.043824274
-0.09322258 0.1471586 -0.0024406544 0.08232141 -0.05084178 0.059221163 0.08437755 -0.037927218
0.050888043 -0.03564915 -0.06384036 -0.13689199 0.028575916 -0.042856477 0.05893828 -0.022629712
-0.019066676 0.07085888 0.013558134 -0.005469347 0.08112121 0.08344521 -0.09508097 0.060185216
0.016035205 0.01741829 0.09137284 -0.11545399 -0.13011134 0.09712365 -0.067124836 -0.119789496
0.085603364 -0.06230621 0.106745355 0.06113788 0.04935962 -0.08217576 -0.060630817 0.07525012
-0.10654954 0.056492317 -0.06433108 -0.028729372 -0.13182987 -0.023503311 -0.035555545 0.033017144
-0.054519854 0.043412168 0.012381832 0.14644627 -0.010484093 -0.144862 -0.08078432 0.12933983
-0.06845498 -0.013277445 0.004672134 -0.09637389 0.08438517 -0.102934316 -0.031029437 -0.09458151
0.06559047 -0.09040252 -0.027788304 0.05285691 -0.07857675 0.14871968 -0.09188659 0.06750467
-0.026991518 -0.06521733 0.08999064 -0.0694283 0.14044438 -0.023086578 -0.10954481 -0.15595399
0.071618244 0.062884085 0.041589677 -0.073789425 0.08178307 -0.019483404 -0.047385734 -0.028904427
-0.047456726 0.119101934 0.08370906 -0.11396368 -0.036084153 0.026312057 0.10579287 0.05029698
-0.111284755 0.05958455 0.1477366 -0.06406603 0.020806849 -0.02553663 -0.09737679 -0.051005643
-0.07651796 -0.0017180349 0.075480394 -0.08448995 0.06842523 0.04552185 -0.05549768 -0.041949335
-0.006165427 -0.0827498 -0.038725983 -0.076408975 -0.0304843 -0.11341961 -0.0039460678 0.06683646
-0.14425471 -0.022142313 0.008878365 -0.0071934834 -0.049844477 0.02112621 -0.033951707 -0.10116772
-0.03747137 0.12694922 0.076650865 -0.11651835 -0.08899637 0.0016935166 0.065171964 0.07627037
0.004802831 -0.13788699 0.027461443 -0.0042039314 0.009602701 -0.07797814 0.08405399 0.075558774
0.0020822268 0.049848527 -0.13004401 0.0155805275 -0.10025693 0.012462444 -0.10714416 0.13307439
-0.058712065 -0.017834587 -0.08210811 0.03162758 0.007465679 -0.03491405 -0.0015798638 -0.06642729
-0.08586457 -0.058731336 -0.044779647 -0.063688025 -0.14827661 -0.06451236 0.051465422 0.024401914
-0.05991078 0.027146216 0.0221629 -0.009593671 -0.05687088 0.008821529 -0.027198581 -0.081982456
-0.087752804 -0.037404567 -0.077007145 -0.054597437 -0.096194945 0.0013656045 0.10640576 0.03904883
-0.074150726 0.09408229 0.0116784265 0.06778202 -0.03758805 -0.113187544 0.14218743 0.08307445
0.04819164 0.026964054 0.12866564 -0.053493936 -0.00332499 0.034739293 -0.017068068 -0.10141185

bias_ih_l0_reverse f4 [256]
00000000: 0083 3b3d a986 80bd 4e0b 973d 6a07 be3d
00000010: a76c 713c 44f6 8dbc c22c d83d 0d78 e33d
00000020: bb45 e73c 3fce 173e 02fd 99bc ff54 bd3d
00000030: d829 d93d 5b12 66bc 117a 463d 1893 2b3c
00000040: e674 163d 8204 863d 3d10 e33d 9258 b83d
00000050: f37d 0d3c 7fbd b5bd 064c b53d ff09 3f3c
00000060: 73cc 9b3d 8666 d3bc 5df2 bfbd 4d3f c53a
00000070: 33da a8bd be29 34bd e00b 863d 7b86 c33c
00000080: 0fe3 183e a1ee 0a3e 78af 103d ef26 3c3c
00000090: 009b 3dbd 2602 88bd 94a4 cebc bcf2 36bd
000000a0: daa6 e03d 2dec 123d 1234 a1bd 7afc cb3d
000000b0: ff33 1e3e f9f4 d9bc 6ccf 9d3b 21a4 5ebd
000000c0: cc0a a1bc bca9 1a3e a464 5cbd 6181 85ba
000000d0: 24d6 fd3c b01b 373d 971b 083e 9db3 9b3d
000000e0: 54d6 b1bd e9be 80bd a33e 483d 3995 7b3c
000000f0: ec13 af3c 740b a4bd c632 163e 691d 993c
00000100: 2678 b13d ef36 b9bd 0794 0b3d 3b4b e3bd
00000110: e211 89bd 2254 9d3d cbe0 95bd 3c04 9d3c
00000120: a85a e4bc f7f2 d8bd 6bcf 4abd d84b 56bc
00000130: 6f19 05be ea96 25bd e806 99bd c954 a73d
00000140: 6f5e d0bd db77 603a 517d 903d 1d7c 323d
00000150: 2ffa dbbd afe8 93bd 5d0d 16bd 7705 ccbd
00000160: 0518 f73b 01fd af3d 10f0 03bd 91bc cabd
00000170: 1b19 d83c d1fe ab3d 2ff5 343c 8686 7abd
00000180: 521e 48bc 83d0 fbbd 479b a83d b5d4 343d
00000190: 246a afbc 1103 a53d dbd6 a73d 530a 9cbd
000001a0: 1ecb a6bc 0dd6 09bd c949 08bd 4d64 483d
000001b0: 47e9 ca3c b391 81bd 9576 be3c 6581 7a3d
000001c0: cb08 383c e544 12bb b1bc c2bc f745 0a3e
000001d0: e4ed 0cbc b301 b83d cd40 963d 550c 13bd
000001e0: 0310 72bd 8dfd 1fbd 291f b83d 4bf3 a4bc
000001f0: 6ca3 bcbd 2c66 d53d 6df8 3c3d 8521 10bd
00000200: 3ed8 f2bd 5f1a 393c 9370 efbd b34f 833d
00000210: ff90 d3bd 3758 abbd 6a57 e0bc 85a7 53bd
00000220: 78e1 96bd 243c 98bd 7527 03bd 0ec5 dfbd
00000230: 0078 ba3c 8b15 1a3d 08cd fe3d a16c 6dbd
00000240: a8c2 fe3c 3639 84bd b666 2e3d 00dd fbbd
00000250: 3723 563d db21 53bc 23ca 0abd 40a8 943d
00000260: aafe 3dbc a164 ad3c 179c a43d 8424 f0bd
00000270: b285 bbbd 23bf 0abe 0297 fb3d 92ad 64bc
00000280: d9e2 853c 99a8 f2bd ddf8 84bd ef49 443d
00000290: bb05 fcbd d6a9 6dbd b1e3 ccbc 5295 b3bc
000002a0: 4197 b13d 2465 28bc 3757 4d3d dc26 01be
000002b0: c36a ac3d 0610 dbbd 68ab 1ebd 1173 e53d
000002c0: ee44 9f3d 8191 0ebe 53b6 573d 18a6 533d
000002d0: c1b9 9a3d c0d4 8bbd ecbd ab3d 295b b53d
000002e0: 2f0e 73bd 1163 87bd 09c7 08bd 0835 643d
000002f0: 72f5 d63d b6e9 963d de42 fabd 5e8b e7bc
00000300: 1c01 bd3d f0b3 993c 4e42 da3d 7982 01bd
00000310: 1796 5bbc 04b3 dc3d 284a 0e3e c870 a73c
00000320: 4ea6 de3d 1ecf 383d 9605 153d 96e7 013e
00000330: ec23 cd3d 4c96 003e c05c 69bb f422 ca3d
00000340: 9a66 c53d 5394 9a3d 39e4 bc3d 7c58 7ebd
00000350: 7470 ac3c 19e8 bdbb 048c 7e3d badf da3d
00000360: a5be 95bd 584e 213d 3192 d83d 3b57 2ebd
00000370: 4abd 59bd c18d 5dbd 0121 093e fb2b 77bd
00000380: d040 2c3e 3a63 413a c66c 093e 6a4d e93d
00000390: a9ed 303c 8240 63bd 8764 303c eb3b e2ba
000003a0: 1e04 25bd 2e7b d73d 5a59 193e 561a 1e3e
000003b0: 5af4 053e 7494 783d 867e f53c 50ed b13d
000003c0: 9292 cdbc 4226 f83d 9810 003d fdc9 87bd
000003d0: a4a0 253e 22fe 7c3d 5018 85bd bf83 e23c
000003e0: 8655 b2bc 624e acbd 927a d13d cda7 77bd
000003f0: b39c 043e debb 963c 5d1a ac3d 9408 133e
0.04577923 -0.062756844 0.07375203 0.09278758 0.014735377 -0.017329343 0.10555412 0.11106882
0.028231492 0.1482477 -0.018797401 0.09244727 0.10603684 -0.014042462 0.048456255 0.010472082
0.036732577 0.065438285 0.110870816 0.090012684 0.008635986 -0.08874034 0.08852391 0.011660098
0.07607355 -0.025805723 -0.09372399 0.0015048772 -0.08244743 -0.04398512 0.06545234 0.023867836
0.14930366 0.13567592 0.03532359 0.011483892 -0.046290398 -0.06641035 -0.025224961 -0.044665083
0.109693244 0.035869766 -0.0787126 0.099602655 0.15449522 -0.02660607 0.0048159864 -0.054355744
-0.019658469 0.15103811 -0.053806916 -0.0010185653 0.0309859 0.04470414 0.13291775 0.07602618
-0.08683458 -0.06286413 0.04888786 0.015355402 0.021371804 -0.08009997 0.14667806 0.018690782
0.086654946 -0.09043681 0.034076717 -0.110983334 -0.06692864 0.07682063 -0.073182665 0.019167058
-0.02787526 -0.10593217 -0.049514215 -0.013079606 -0.12997983 -0.040427126 -0.074720204 0.08170468
-0.10174262 0.0008562782 0.07055152 0.043575395 -0.10741078 -0.07222115 -0.036633838 -0.0996198
0.007540705 0.085931785 -0.032211363 -0.098992474 0.026379159 0.08398212 0.011044784 -0.061163448
-0.01221426 -0.1229563 0.08232742 0.044148166 -0.021412916 0.080572255 0.08195277 -0.07619157
-0.020360526 -0.0336514 -0.033273492 0.04892378 0.024769438 -0.06326618 0.023249904 0.061158556
0.011232565 -0.0022318896 -0.023771616 0.13503252 -0.008601639 0.08984699 0.073365785 -0.035900433
-0.0590973 -0.039060164 0.08990318 -0.020135542 -0.09210858 0.10419878 0.046135355 -0.035188217
-0.11857651 0.011297791 -0.11691394 0.06411686 -0.1033039 -0.08366435 -0.027385432 -0.05167343
-0.073672235 -0.07433346 -0.03202005 -0.10926257 0.022762299 0.0376182 0.1244145 -0.057964925
0.031098679 -0.064562246 0.04257842 -0.12298012 0.052279677 -0.01288649 -0.03388418 0.07258654
-0.011596361 0.021166148 0.08037584 -0.11725715 -0.0915636 -0.13549475 0.12284662 -0.013957398
0.016343521 -0.11848564 -0.064927794 0.04792207 -0.123057805 -0.058023296 -0.025010915 -0.021921787
0.086714275 -0.01027802 0.050132003 -0.1261248 0.08418801 -0.106964156 -0.038737684 0.11203588
0.07776819 -0.13922693 0.052664112 0.05167207 0.07554961 -0.06827688 0.08385834 0.08855278
-0.0593397 -0.06610692 -0.03339294 0.055714637 0.10496034 0.073687956 -0.12219785 -0.028264698
0.09228727 0.018762559 0.10657178 -0.03161857 -0.013402483 0.10776332 0.13895476 0.02043952
0.10871564 0.045119397 0.03638228 0.12686 0.10016617 0.12557334 -0.0035608262 0.09869948
0.0963871 0.07547822 0.092232175 -0.062096104 0.021049716 -0.0057954905 0.062145248 0.10687204
-0.07311753 0.039381355 0.10574759 -0.04256366 -0.053159036 -0.054090265 0.13391496 -0.060344677
0.16821599 0.00073771516 0.134204 0.11391719 0.01079885 -0.05548144 0.010766155 -0.0017260289
-0.04028713 0.105215415 0.14975491 0.15439734 0.13081494 0.06068845 0.029967558 0.08687842
-0.025094304 0.12116672 0.031265825 -0.06630323 0.16174561 0.061765797 -0.06498778 0.027650712
-0.021769296 -0.08413388 0.102284566 -0.06046276 0.12950401 0.018400129 0.08403466 0.14358741
